…
"}},"outputId":"30d16849-bf83-4db0-9fd5-c1a8a834e56f","colab":{"base_uri":"https://localhost:8080/","height":1000}},"source":["# Check Summary\n","model.summary()"],"execution_count":35,"outputs":[{"output_type":"stream","text":["Model: \"functional_1\"\n","__________________________________________________________________________________________________\n","Layer (type)                    Output Shape         Param #     Connected to                     \n","==================================================================================================\n","input_1 (InputLayer)            [(None, 331, 331, 3) 0                                            \n","__________________________________________________________________________________________________\n","stem_conv1 (Conv2D)             (None, 165, 165, 96) 2592        input_1[0][0]                    \n","__________________________________________________________________________________________________\n","stem_bn1 (BatchNormalization)   (None, 165, 165, 96) 384         stem_conv1[0][0]                 \n","__________________________________________________________________________________________________\n","activation (Activation)         (None, 165, 165, 96) 0           stem_bn1[0][0]                   \n","__________________________________________________________________________________________________\n","reduction_conv_1_stem_1 (Conv2D (None, 165, 165, 42) 4032        activation[0][0]                 \n","__________________________________________________________________________________________________\n","reduction_bn_1_stem_1 (BatchNor (None, 165, 165, 42) 168         reduction_conv_1_stem_1[0][0]    \n","__________________________________________________________________________________________________\n","activation_1 (Activation)       (None, 165, 165, 42) 0           reduction_bn_1_stem_1[0][0]      \n","__________________________________________________________________________________________________\n","activation_3 (Activation)       (None, 165, 165, 96) 0           stem_bn1[0][0]                   \n","__________________________________________________________________________________________________\n","separable_conv_1_pad_reduction_ (None, 169, 169, 42) 0           activation_1[0][0]               \n","__________________________________________________________________________________________________\n","separable_conv_1_pad_reduction_ (None, 171, 171, 96) 0           activation_3[0][0]               \n","__________________________________________________________________________________________________\n","separable_conv_1_reduction_left (None, 83, 83, 42)   2814        separable_conv_1_pad_reduction_le\n","__________________________________________________________________________________________________\n","separable_conv_1_reduction_righ (None, 83, 83, 42)   8736        separable_conv_1_pad_reduction_ri\n","__________________________________________________________________________________________________\n","separable_conv_1_bn_reduction_l (None, 83, 83, 42)   168         separable_conv_1_reduction_left1_\n","__________________________________________________________________________________________________\n","separable_conv_1_bn_reduction_r (None, 83, 83, 42)   168         separable_conv_1_reduction_right1\n","__________________________________________________________________________________________________\n","activation_2 (Activation)       (None, 83, 83, 42)   0           separable_conv_1_bn_reduction_lef\n","__________________________________________________________________________________________________\n","activation_4 (Activation)       (None, 83, 83, 42)   0           separable_conv_1_bn_reduction_rig\n","__________________________________________________________________________________________________\n","separable_conv_2_reduction_left (None, 83, 83, 42)   2814        activation_2[0][0]               \n","__________________________________________________________________________________________________\n","separable_conv_2_reduction_righ (None, 83, 83, 42)   3822        activation_4[0][0]               \n","__________________________________________________________________________________________________\n","activation_5 (Activation)       (None, 165, 165, 96) 0           stem_bn1[0][0]                   \n","__________________________________________________________________________________________________\n","separable_conv_2_bn_reduction_l (None, 83, 83, 42)   168         separable_conv_2_reduction_left1_\n","__________________________________________________________________________________________________\n","separable_conv_2_bn_reduction_r (None, 83, 83, 42)   168         separable_conv_2_reduction_right1\n","__________________________________________________________________________________________________\n","separable_conv_1_pad_reduction_ (None, 171, 171, 96) 0           activation_5[0][0]               \n","__________________________________________________________________________________________________\n","activation_7 (Activation)       (None, 165, 165, 96) 0           stem_bn1[0][0]                   \n","__________________________________________________________________________________________________\n","reduction_add_1_stem_1 (Add)    (None, 83, 83, 42)   0           separable_conv_2_bn_reduction_lef\n","                                                                 separable_conv_2_bn_reduction_rig\n","__________________________________________________________________________________________________\n","separable_conv_1_reduction_righ (None, 83, 83, 42)   8736        separable_conv_1_pad_reduction_ri\n","__________________________________________________________________________________________________\n","separable_conv_1_pad_reduction_ (None, 169, 169, 96) 0           activation_7[0][0]               \n","__________________________________________________________________________________________________\n","activation_9 (Activation)       (None, 83, 83, 42)   0           reduction_add_1_stem_1[0][0]     \n","__________________________________________________________________________________________________\n","separable_conv_1_bn_reduction_r (None, 83, 83, 42)   168         separable_conv_1_reduction_right2\n","__________________________________________________________________________________________________\n","separable_conv_1_reduction_righ (None, 83, 83, 42)   6432        separable_conv_1_pad_reduction_ri\n","__________________________________________________________________________________________________\n","separable_conv_1_reduction_left (None, 83, 83, 42)   2142        activation_9[0][0]               \n","__________________________________________________________________________________________________\n","activation_6 (Activation)       (None, 83, 83, 42)   0           separable_conv_1_bn_reduction_rig\n","__________________________________________________________________________________________________\n","separable_conv_1_bn_reduction_r (None, 83, 83, 42)   168         separable_conv_1_reduction_right3\n","__________________________________________________________________________________________________\n","separable_conv_1_bn_reduction_l (None, 83, 83, 42)   168         separable_conv_1_reduction_left4_\n","__________________________________________________________________________________________________\n","reduction_pad_1_stem_1 (ZeroPad (None, 167, 167, 42) 0           reduction_bn_1_stem_1[0][0]      \n","__________________________________________________________________________________________________\n","separable_conv_2_reduction_righ (None, 83, 83, 42)   3822        activation_6[0][0]               \n","__________________________________________________________________________________________________\n","activation_8 (Activation)       (None, 83, 83, 42)   0           separable_conv_1_bn_reduction_rig\n","__________________________________________________________________________________________________\n","activation_10 (Activation)      (None, 83, 83, 42)   0           separable_conv_1_bn_reduction_lef\n","__________________________________________________________________________________________________\n","reduction_left2_stem_1 (MaxPool (None, 83, 83, 42)   0           reduction_pad_1_stem_1[0][0]     \n","__________________________________________________________________________________________________\n","separable_conv_2_bn_reduction_r (None, 83, 83, 42)   168         separable_conv_2_reduction_right2\n","__________________________________________________________________________________________________\n","separable_conv_2_reduction_righ (None, 83, 83, 42)   2814        activation_8[0][0]               \n","__________________________________________________________________________________________________\n","separable_conv_2_reduction_left (None, 83, 83, 42)   2142        activation_10[0][0]              \n","__________________________________________________________________________________________________\n","adjust_relu_1_stem_2 (Activatio (None, 165, 165, 96) 0           stem_bn1[0][0]                   \n","__________________________________________________________________________________________________\n","reduction_add_2_stem_1 (Add)    (None, 83, 83, 42)   0           reduction_left2_stem_1[0][0]     \n","                                                                 separable_conv_2_bn_reduction_rig\n","__________________________________________________________________________________________________\n","reduction_left3_stem_1 (Average (None, 83, 83, 42)   0           reduction_pad_1_stem_1[0][0]     \n","__________________________________________________________________________________________________\n","separable_conv_2_bn_reduction_r (None, 83, 83, 42)   168         separable_conv_2_reduction_right3\n","__________________________________________________________________________________________________\n","reduction_left4_stem_1 (Average (None, 83, 83, 42)   0           reduction_add_1_stem_1[0][0]     \n","__________________________________________________________________________________________________\n","separable_conv_2_bn_reduction_l (None, 83, 83, 42)   168         separable_conv_2_reduction_left4_\n","__________________________________________________________________________________________________\n","reduction_right5_stem_1 (MaxPoo (None, 83, 83, 42)   0           reduction_pad_1_stem_1[0][0]     \n","__________________________________________________________________________________________________\n","zero_padding2d (ZeroPadding2D)  (None, 166, 166, 96) 0           adjust_relu_1_stem_2[0][0]       \n","__________________________________________________________________________________________________\n","reduction_add3_stem_1 (Add)     (None, 83, 83, 42)   0           reduction_left3_stem_1[0][0]     \n","                                                                 separable_conv_2_bn_reduction_rig\n","__________________________________________________________________________________________________\n","add (Add)                       (None, 83, 83, 42)   0           reduction_add_2_stem_1[0][0]     \n","                                                                 reduction_left4_stem_1[0][0]     \n","__________________________________________________________________________________________________\n","reduction_add4_stem_1 (Add)     (None, 83, 83, 42)   0           separable_conv_2_bn_reduction_lef\n","                                                                 reduction_right5_stem_1[0][0]    \n","__________________________________________________________________________________________________\n","cropping2d (Cropping2D)         (None, 165, 165, 96) 0           zero_padding2d[0][0]             \n","__________________________________________________________________________________________________\n","reduction_concat_stem_1 (Concat (None, 83, 83, 168)  0           reduction_add_2_stem_1[0][0]     \n","                                                                 reduction_add3_stem_1[0][0]      \n","                                                                 add[0][0]                        \n","                                                                 reduction_add4_stem_1[0][0]      \n","__________________________________________________________________________________________________\n","adjust_avg_pool_1_stem_2 (Avera (None, 83, 83, 96)   0           adjust_relu_1_stem_2[0][0]       \n","__________________________________________________________________________________________________\n","adjust_avg_pool_2_stem_2 (Avera (None, 83, 83, 96)   0           cropping2d[0][0]                 \n","__________________________________________________________________________________________________\n","activation_11 (Activation)      (None, 83, 83, 168)  0           reduction_concat_stem_1[0][0]    \n","__________________________________________________________________________________________________\n","adjust_conv_1_stem_2 (Conv2D)   (None, 83, 83, 42)   4032        adjust_avg_pool_1_stem_2[0][0]   \n","__________________________________________________________________________________________________\n","adjust_conv_2_stem_2 (Conv2D)   (None, 83, 83, 42)   4032        adjust_avg_pool_2_stem_2[0][0]   \n","__________________________________________________________________________________________________\n","reduction_conv_1_stem_2 (Conv2D (None, 83, 83, 84)   14112       activation_11[0][0]              \n","__________________________________________________________________________________________________\n","concatenate (Concatenate)       (None, 83, 83, 84)   0           adjust_conv_1_stem_2[0][0]       \n","                                                                 adjust_conv_2_stem_2[0][0]       \n","__________________________________________________________________________________________________\n","reduction_bn_1_stem_2 (BatchNor (None, 83, 83, 84)   336         reduction_conv_1_stem_2[0][0]    \n","__________________________________________________________________________________________________\n","adjust_bn_stem_2 (BatchNormaliz (None, 83, 83, 84)   336         concatenate[0][0]                \n","__________________________________________________________________________________________________\n","activation_12 (Activation)      (None, 83, 83, 84)   0           reduction_bn_1_stem_2[0][0]      \n","__________________________________________________________________________________________________\n","activation_14 (Activation)      (None, 83, 83, 84)   0           adjust_bn_stem_2[0][0]           \n","__________________________________________________________________________________________________\n","separable_conv_1_pad_reduction_ (None, 87, 87, 84)   0           activation_12[0][0]              \n","__________________________________________________________________________________________________\n","separable_conv_1_pad_reduction_ (None, 89, 89, 84)   0           activation_14[0][0]              \n","__________________________________________________________________________________________________\n","separable_conv_1_reduction_left (None, 42, 42, 84)   9156        separable_conv_1_pad_reduction_le\n","__________________________________________________________________________________________________\n","separable_conv_1_reduction_righ (None, 42, 42, 84)   11172       separable_conv_1_pad_reduction_ri\n","__________________________________________________________________________________________________\n","separable_conv_1_bn_reduction_l (None, 42, 42, 84)   336         separable_conv_1_reduction_left1_\n","__________________________________________________________________________________________________\n","separable_conv_1_bn_reduction_r (None, 42, 42, 84)   336         separable_conv_1_reduction_right1\n","__________________________________________________________________________________________________\n","activation_13 (Activation)      (None, 42, 42, 84)   0           separable_conv_1_bn_reduction_lef\n","__________________________________________________________________________________________________\n","activation_15 (Activation)      (None, 42, 42, 84)   0           separable_conv_1_bn_reduction_rig\n","__________________________________________________________________________________________________\n","separable_conv_2_reduction_left (None, 42, 42, 84)   9156        activation_13[0][0]              \n","__________________________________________________________________________________________________\n","separable_conv_2_reduction_righ (None, 42, 42, 84)   11172       activation_15[0][0]              \n","__________________________________________________________________________________________________\n","activation_16 (Activation)      (None, 83, 83, 84)   0           adjust_bn_stem_2[0][0]           \n","__________________________________________________________________________________________________\n","separable_conv_2_bn_reduction_l (None, 42, 42, 84)   336         separable_conv_2_reduction_left1_\n","__________________________________________________________________________________________________\n","separable_conv_2_bn_reduction_r (None, 42, 42, 84)   336         separable_conv_2_reduction_right1\n","__________________________________________________________________________________________________\n","separable_conv_1_pad_reduction_ (None, 89, 89, 84)   0           activation_16[0][0]              \n","__________________________________________________________________________________________________\n","activation_18 (Activation)      (None, 83, 83, 84)   0           adjust_bn_stem_2[0][0]           \n","__________________________________________________________________________________________________\n","reduction_add_1_stem_2 (Add)    (None, 42, 42, 84)   0           separable_conv_2_bn_reduction_lef\n","                                                                 separable_conv_2_bn_reduction_rig\n","__________________________________________________________________________________________________\n","separable_conv_1_reduction_righ (None, 42, 42, 84)   11172       separable_conv_1_pad_reduction_ri\n","__________________________________________________________________________________________________\n","separable_conv_1_pad_reduction_ (None, 87, 87, 84)   0           activation_18[0][0]              \n","__________________________________________________________________________________________________\n","activation_20 (Activation)      (None, 42, 42, 84)   0           reduction_add_1_stem_2[0][0]     \n","__________________________________________________________________________________________________\n","separable_conv_1_bn_reduction_r (None, 42, 42, 84)   336         separable_conv_1_reduction_right2\n","__________________________________________________________________________________________________\n","separable_conv_1_reduction_righ (None, 42, 42, 84)   9156        separable_conv_1_pad_reduction_ri\n","__________________________________________________________________________________________________\n","separable_conv_1_reduction_left (None, 42, 42, 84)   7812        activation_20[0][0]              \n","__________________________________________________________________________________________________\n","activation_17 (Activation)      (None, 42, 42, 84)   0           separable_conv_1_bn_reduction_rig\n","__________________________________________________________________________________________________\n","separable_conv_1_bn_reduction_r (None, 42, 42, 84)   336         separable_conv_1_reduction_right3\n","__________________________________________________________________________________________________\n","separable_conv_1_bn_reduction_l (None, 42, 42, 84)   336         separable_conv_1_reduction_left4_\n","__________________________________________________________________________________________________\n","reduction_pad_1_stem_2 (ZeroPad (None, 85, 85, 84)   0           reduction_bn_1_stem_2[0][0]      \n","__________________________________________________________________________________________________\n","separable_conv_2_reduction_righ (None, 42, 42, 84)   11172       activation_17[0][0]              \n","__________________________________________________________________________________________________\n","activation_19 (Activation)      (None, 42, 42, 84)   0           separable_conv_1_bn_reduction_rig\n","__________________________________________________________________________________________________\n","activation_21 (Activation)      (None, 42, 42, 84)   0           separable_conv_1_bn_reduction_lef\n","__________________________________________________________________________________________________\n","reduction_left2_stem_2 (MaxPool (None, 42, 42, 84)   0           reduction_pad_1_stem_2[0][0]     \n","__________________________________________________________________________________________________\n","separable_conv_2_bn_reduction_r (None, 42, 42, 84)   336         separable_conv_2_reduction_right2\n","__________________________________________________________________________________________________\n","separable_conv_2_reduction_righ (None, 42, 42, 84)   9156        activation_19[0][0]              \n","__________________________________________________________________________________________________\n","separable_conv_2_reduction_left (None, 42, 42, 84)   7812        activation_21[0][0]              \n","__________________________________________________________________________________________________\n","adjust_relu_1_0 (Activation)    (None, 83, 83, 168)  0           reduction_concat_stem_1[0][0]    \n","__________________________________________________________________________________________________\n","reduction_add_2_stem_2 (Add)    (None, 42, 42, 84)   0           reduction_left2_stem_2[0][0]     \n","                                                                 separable_conv_2_bn_reduction_rig\n","__________________________________________________________________________________________________\n","reduction_left3_stem_2 (Average (None, 42, 42, 84)   0           reduction_pad_1_stem_2[0][0]     \n","__________________________________________________________________________________________________\n","separable_conv_2_bn_reduction_r (None, 42, 42, 84)   336         separable_conv_2_reduction_right3\n","__________________________________________________________________________________________________\n","reduction_left4_stem_2 (Average (None, 42, 42, 84)   0           reduction_add_1_stem_2[0][0]     \n","__________________________________________________________________________________________________\n","separable_conv_2_bn_reduction_l (None, 42, 42, 84)   336         separable_conv_2_reduction_left4_\n","__________________________________________________________________________________________________\n","reduction_right5_stem_2 (MaxPoo (None, 42, 42, 84)   0           reduction_pad_1_stem_2[0][0]     \n","__________________________________________________________________________________________________\n","zero_padding2d_1 (ZeroPadding2D (None, 84, 84, 168)  0           adjust_relu_1_0[0][0]            \n","__________________________________________________________________________________________________\n","reduction_add3_stem_2 (Add)     (None, 42, 42, 84)   0           reduction_left3_stem_2[0][0]     \n","                                                                 separable_conv_2_bn_reduction_rig\n","__________________________________________________________________________________________________\n","add_1 (Add)                     (None, 42, 42, 84)   0           reduction_add_2_stem_2[0][0]     \n","                                                                 reduction_left4_stem_2[0][0]     \n","__________________________________________________________________________________________________\n","reduction_add4_stem_2 (Add)     (None, 42, 42, 84)   0           separable_conv_2_bn_reduction_lef\n","                                                                 reduction_right5_stem_2[0][0]    \n","__________________________________________________________________________________________________\n","cropping2d_1 (Cropping2D)       (None, 83, 83, 168)  0           zero_padding2d_1[0][0]           \n","__________________________________________________________________________________________________\n","reduction_concat_stem_2 (Concat (None, 42, 42, 336)  0           reduction_add_2_stem_2[0][0]     \n","                                                                 reduction_add3_stem_2[0][0]      \n","                                                                 add_1[0][0]                      \n","                                                                 reduction_add4_stem_2[0][0]      \n","__________________________________________________________________________________________________\n","adjust_avg_pool_1_0 (AveragePoo (None, 42, 42, 168)  0           adjust_relu_1_0[0][0]            \n","__________________________________________________________________________________________________\n","adjust_avg_pool_2_0 (AveragePoo (None, 42, 42, 168)  0           cropping2d_1[0][0]               \n","__________________________________________________________________________________________________\n","adjust_conv_1_0 (Conv2D)        (None, 42, 42, 84)   14112       adjust_avg_pool_1_0[0][0]        \n","__________________________________________________________________________________________________\n","adjust_conv_2_0 (Conv2D)        (None, 42, 42, 84)   14112       adjust_avg_pool_2_0[0][0]        \n","__________________________________________________________________________________________________\n","activation_22 (Activation)      (None, 42, 42, 336)  0           reduction_concat_stem_2[0][0]    \n","__________________________________________________________________________________________________\n","concatenate_1 (Concatenate)     (None, 42, 42, 168)  0           adjust_conv_1_0[0][0]            \n","                                                                 adjust_conv_2_0[0][0]            \n","__________________________________________________________________________________________________\n","normal_conv_1_0 (Conv2D)        (None, 42, 42, 168)  56448       activation_22[0][0]              \n","__________________________________________________________________________________________________\n","adjust_bn_0 (BatchNormalization (None, 42, 42, 168)  672         concatenate_1[0][0]              \n","__________________________________________________________________________________________________\n","normal_bn_1_0 (BatchNormalizati (None, 42, 42, 168)  672         normal_conv_1_0[0][0]            \n","__________________________________________________________________________________________________\n","activation_23 (Activation)      (None, 42, 42, 168)  0           normal_bn_1_0[0][0]              \n","__________________________________________________________________________________________________\n","activation_25 (Activation)      (None, 42, 42, 168)  0           adjust_bn_0[0][0]                \n","__________________________________________________________________________________________________\n","activation_27 (Activation)      (None, 42, 42, 168)  0           adjust_bn_0[0][0]                \n","__________________________________________________________________________________________________\n","activation_29 (Activation)      (None, 42, 42, 168)  0           adjust_bn_0[0][0]                \n","__________________________________________________________________________________________________\n","activation_31 (Activation)      (None, 42, 42, 168)  0           normal_bn_1_0[0][0]              \n","__________________________________________________________________________________________________\n","separable_conv_1_normal_left1_0 (None, 42, 42, 168)  32424       activation_23[0][0]              \n","__________________________________________________________________________________________________\n","separable_conv_1_normal_right1_ (None, 42, 42, 168)  29736       activation_25[0][0]              \n","__________________________________________________________________________________________________\n","separable_conv_1_normal_left2_0 (None, 42, 42, 168)  32424       activation_27[0][0]              \n","__________________________________________________________________________________________________\n","separable_conv_1_normal_right2_ (None, 42, 42, 168)  29736       activation_29[0][0]              \n","__________________________________________________________________________________________________\n","separable_conv_1_normal_left5_0 (None, 42, 42, 168)  29736       activation_31[0][0]              \n","__________________________________________________________________________________________________\n","separable_conv_1_bn_normal_left (None, 42, 42, 168)  672         separable_conv_1_normal_left1_0[0\n","__________________________________________________________________________________________________\n","separable_conv_1_bn_normal_righ (None, 42, 42, 168)  672         separable_conv_1_normal_right1_0[\n","__________________________________________________________________________________________________\n","separable_conv_1_bn_normal_left (None, 42, 42, 168)  672         separable_conv_1_normal_left2_0[0\n","__________________________________________________________________________________________________\n","separable_conv_1_bn_normal_righ (None, 42, 42, 168)  672         separable_conv_1_normal_right2_0[\n","__________________________________________________________________________________________________\n","separable_conv_1_bn_normal_left (None, 42, 42, 168)  672         separable_conv_1_normal_left5_0[0\n","__________________________________________________________________________________________________\n","activation_24 (Activation)      (None, 42, 42, 168)  0           separable_conv_1_bn_normal_left1_\n","__________________________________________________________________________________________________\n","activation_26 (Activation)      (None, 42, 42, 168)  0           separable_conv_1_bn_normal_right1\n","__________________________________________________________________________________________________\n","activation_28 (Activation)      (None, 42, 42, 168)  0           separable_conv_1_bn_normal_left2_\n","__________________________________________________________________________________________________\n","activation_30 (Activation)      (None, 42, 42, 168)  0           separable_conv_1_bn_normal_right2\n","__________________________________________________________________________________________________\n","activation_32 (Activation)      (None, 42, 42, 168)  0           separable_conv_1_bn_normal_left5_\n","__________________________________________________________________________________________________\n","separable_conv_2_normal_left1_0 (None, 42, 42, 168)  32424       activation_24[0][0]              \n","__________________________________________________________________________________________________\n","separable_conv_2_normal_right1_ (None, 42, 42, 168)  29736       activation_26[0][0]              \n","__________________________________________________________________________________________________\n","separable_conv_2_normal_left2_0 (None, 42, 42, 168)  32424       activation_28[0][0]              \n","__________________________________________________________________________________________________\n","separable_conv_2_normal_right2_ (None, 42, 42, 168)  29736       activation_30[0][0]              \n","__________________________________________________________________________________________________\n","separable_conv_2_normal_left5_0 (None, 42, 42, 168)  29736       activation_32[0][0]              \n","__________________________________________________________________________________________________\n","separable_conv_2_bn_normal_left (None, 42, 42, 168)  672         separable_conv_2_normal_left1_0[0\n","__________________________________________________________________________________________________\n","separable_conv_2_bn_normal_righ (None, 42, 42, 168)  672         separable_conv_2_normal_right1_0[\n","__________________________________________________________________________________________________\n","separable_conv_2_bn_normal_left (None, 42, 42, 168)  672         separable_conv_2_normal_left2_0[0\n","__________________________________________________________________________________________________\n","separable_conv_2_bn_normal_righ (None, 42, 42, 168)  672         separable_conv_2_normal_right2_0[\n","__________________________________________________________________________________________________\n","normal_left3_0 (AveragePooling2 (None, 42, 42, 168)  0           normal_bn_1_0[0][0]              \n","__________________________________________________________________________________________________\n","normal_left4_0 (AveragePooling2 (None, 42, 42, 168)  0           adjust_bn_0[0][0]                \n","__________________________________________________________________________________________________\n","normal_right4_0 (AveragePooling (None, 42, 42, 168)  0           adjust_bn_0[0][0]                \n","__________________________________________________________________________________________________\n","separable_conv_2_bn_normal_left (None, 42, 42, 168)  672         separable_conv_2_normal_left5_0[0\n","__________________________________________________________________________________________________\n","normal_add_1_0 (Add)            (None, 42, 42, 168)  0           separable_conv_2_bn_normal_left1_\n","                                                                 separable_conv_2_bn_normal_right1\n","__________________________________________________________________________________________________\n","normal_add_2_0 (Add)            (None, 42, 42, 168)  0           separable_conv_2_bn_normal_left2_\n","                                                                 separable_conv_2_bn_normal_right2\n","__________________________________________________________________________________________________\n","normal_add_3_0 (Add)            (None, 42, 42, 168)  0           normal_left3_0[0][0]             \n","                                                                 adjust_bn_0[0][0]                \n","__________________________________________________________________________________________________\n","normal_add_4_0 (Add)            (None, 42, 42, 168)  0           normal_left4_0[0][0]             \n","                                                                 normal_right4_0[0][0]            \n","__________________________________________________________________________________________________\n","normal_add_5_0 (Add)            (None, 42, 42, 168)  0           separable_conv_2_bn_normal_left5_\n","                                                                 normal_bn_1_0[0][0]              \n","__________________________________________________________________________________________________\n","normal_concat_0 (Concatenate)   (None, 42, 42, 1008) 0           adjust_bn_0[0][0]                \n","                                                                 normal_add_1_0[0][0]             \n","                                                                 normal_add_2_0[0][0]             \n","                                                                 normal_add_3_0[0][0]             \n","                                                                 normal_add_4_0[0][0]             \n","                                                                 normal_add_5_0[0][0]             \n","__________________________________________________________________________________________________\n","activation_33 (Activation)      (None, 42, 42, 336)  0           reduction_concat_stem_2[0][0]    \n","__________________________________________________________________________________________________\n","activation_34 (Activation)      (None, 42, 42, 1008) 0           normal_concat_0[0][0]            \n","__________________________________________________________________________________________________\n","adjust_conv_projection_1 (Conv2 (None, 42, 42, 168)  56448       activation_33[0][0]              \n","__________________________________________________________________________________________________\n","normal_conv_1_1 (Conv2D)        (None, 42, 42, 168)  169344      activation_34[0][0]              \n","__________________________________________________________________________________________________\n","adjust_bn_1 (BatchNormalization (None, 42, 42, 168)  672         adjust_conv_projection_1[0][0]   \n","__________________________________________________________________________________________________\n","normal_bn_1_1 (BatchNormalizati (None, 42, 42, 168)  672         normal_conv_1_1[0][0]            \n","__________________________________________________________________________________________________\n","activation_35 (Activation)      (None, 42, 42, 168)  0           normal_bn_1_1[0][0]              \n","__________________________________________________________________________________________________\n","activation_37 (Activation)      (None, 42, 42, 168)  0           adjust_bn_1[0][0]                \n","__________________________________________________________________________________________________\n","activation_39 (Activation)      (None, 42, 42, 168)  0           adjust_bn_1[0][0]                \n","__________________________________________________________________________________________________\n","activation_41 (Activation)      (None, 42, 42, 168)  0           adjust_bn_1[0][0]                \n","__________________________________________________________________________________________________\n","activation_43 (Activation)      (None, 42, 42, 168)  0           normal_bn_1_1[0][0]              \n","__________________________________________________________________________________________________\n","separable_conv_1_normal_left1_1 (None, 42, 42, 168)  32424       activation_35[0][0]              \n","__________________________________________________________________________________________________\n","separable_conv_1_normal_right1_ (None, 42, 42, 168)  29736       activation_37[0][0]              \n","__________________________________________________________________________________________________\n","separable_conv_1_normal_left2_1 (None, 42, 42, 168)  32424       activation_39[0][0]              \n","__________________________________________________________________________________________________\n","separable_conv_1_normal_right2_ (None, 42, 42, 168)  29736       activation_41[0][0]              \n","__________________________________________________________________________________________________\n","separable_conv_1_normal_left5_1 (None, 42, 42, 168)  29736       activation_43[0][0]              \n","__________________________________________________________________________________________________\n","separable_conv_1_bn_normal_left (None, 42, 42, 168)  672         separable_conv_1_normal_left1_1[0\n","__________________________________________________________________________________________________\n","separable_conv_1_bn_normal_righ (None, 42, 42, 168)  672         separable_conv_1_normal_right1_1[\n","__________________________________________________________________________________________________\n","separable_conv_1_bn_normal_left (None, 42, 42, 168)  672         separable_conv_1_normal_left2_1[0\n","__________________________________________________________________________________________________\n","separable_conv_1_bn_normal_righ (None, 42, 42, 168)  672         separable_conv_1_normal_right2_1[\n","__________________________________________________________________________________________________\n","separable_conv_1_bn_normal_left (None, 42, 42, 168)  672         separable_conv_1_normal_left5_1[0\n","__________________________________________________________________________________________________\n","activation_36 (Activation)      (None, 42, 42, 168)  0           separable_conv_1_bn_normal_left1_\n","__________________________________________________________________________________________________\n","activation_38 (Activation)      (None, 42, 42, 168)  0           separable_conv_1_bn_normal_right1\n","__________________________________________________________________________________________________\n","activation_40 (Activation)      (None, 42, 42, 168)  0           separable_conv_1_bn_normal_left2_\n","__________________________________________________________________________________________________\n","activation_42 (Activation)      (None, 42, 42, 168)  0           separable_conv_1_bn_normal_right2\n","__________________________________________________________________________________________________\n","activation_44 (Activation)      (None, 42, 42, 168)  0           separable_conv_1_bn_normal_left5_\n","__________________________________________________________________________________________________\n","separable_conv_2_normal_left1_1 (None, 42, 42, 168)  32424       activation_36[0][0]              \n","__________________________________________________________________________________________________\n","separable_conv_2_normal_right1_ (None, 42, 42, 168)  29736       activation_38[0][0]              \n","__________________________________________________________________________________________________\n","separable_conv_2_normal_left2_1 (None, 42, 42, 168)  32424       activation_40[0][0]              \n","__________________________________________________________________________________________________\n","separable_conv_2_normal_right2_ (None, 42, 42, 168)  29736       activation_42[0][0]              \n","__________________________________________________________________________________________________\n","separable_conv_2_normal_left5_1 (None, 42, 42, 168)  29736       activation_44[0][0]              \n","__________________________________________________________________________________________________\n","separable_conv_2_bn_normal_left (None, 42, 42, 168)  672         separable_conv_2_normal_left1_1[0\n","__________________________________________________________________________________________________\n","separable_conv_2_bn_normal_righ (None, 42, 42, 168)  672         separable_conv_2_normal_right1_1[\n","__________________________________________________________________________________________________\n","separable_conv_2_bn_normal_left (None, 42, 42, 168)  672         separable_conv_2_normal_left2_1[0\n","__________________________________________________________________________________________________\n","separable_conv_2_bn_normal_righ (None, 42, 42, 168)  672         separable_conv_2_normal_right2_1[\n","__________________________________________________________________________________________________\n","normal_left3_1 (AveragePooling2 (None, 42, 42, 168)  0           normal_bn_1_1[0][0]              \n","__________________________________________________________________________________________________\n","normal_left4_1 (AveragePooling2 (None, 42, 42, 168)  0           adjust_bn_1[0][0]                \n","__________________________________________________________________________________________________\n","normal_right4_1 (AveragePooling (None, 42, 42, 168)  0           adjust_bn_1[0][0]                \n","__________________________________________________________________________________________________\n","separable_conv_2_bn_normal_left (None, 42, 42, 168)  672         separable_conv_2_normal_left5_1[0\n","__________________________________________________________________________________________________\n","normal_add_1_1 (Add)            (None, 42, 42, 168)  0           separable_conv_2_bn_normal_left1_\n","                                                                 separable_conv_2_bn_normal_right1\n","__________________________________________________________________________________________________\n","normal_add_2_1 (Add)            (None, 42, 42, 168)  0           separable_conv_2_bn_normal_left2_\n","                                                                 separable_conv_2_bn_normal_right2\n","__________________________________________________________________________________________________\n","normal_add_3_1 (Add)            (None, 42, 42, 168)  0           normal_left3_1[0][0]             \n","                                                                 adjust_bn_1[0][0]                \n","__________________________________________________________________________________________________\n","normal_add_4_1 (Add)            (None, 42, 42, 168)  0           normal_left4_1[0][0]             \n","                                                                 normal_right4_1[0][0]            \n","__________________________________________________________________________________________________\n","normal_add_5_1 (Add)            (None, 42, 42, 168)  0           separable_conv_2_bn_normal_left5_\n","                                                                 normal_bn_1_1[0][0]              \n","__________________________________________________________________________________________________\n","normal_concat_1 (Concatenate)   (None, 42, 42, 1008) 0           adjust_bn_1[0][0]                \n","                                                                 normal_add_1_1[0][0]             \n","                                                                 normal_add_2_1[0][0]             \n","                                                                 normal_add_3_1[0][0]             \n","                                                                 normal_add_4_1[0][0]             \n","                                                                 normal_add_5_1[0][0]             \n","__________________________________________________________________________________________________\n","activation_45 (Activation)      (None, 42, 42, 1008) 0           normal_concat_0[0][0]            \n","__________________________________________________________________________________________________\n","activation_46 (Activation)      (None, 42, 42, 1008) 0           normal_concat_1[0][0]            \n","__________________________________________________________________________________________________\n","adjust_conv_projection_2 (Conv2 (None, 42, 42, 168)  169344      activation_45[0][0]              \n","__________________________________________________________________________________________________\n","normal_conv_1_2 (Conv2D)        (None, 42, 42, 168)  169344      activation_46[0][0]              \n","__________________________________________________________________________________________________\n","adjust_bn_2 (BatchNormalization (None, 42, 42, 168)  672         adjust_conv_projection_2[0][0]   \n","__________________________________________________________________________________________________\n","normal_bn_1_2 (BatchNormalizati (None, 42, 42, 168)  672         normal_conv_1_2[0][0]            \n","__________________________________________________________________________________________________\n","activation_47 (Activation)      (None, 42, 42, 168)  0           normal_bn_1_2[0][0]              \n","__________________________________________________________________________________________________\n","activation_49 (Activation)      (None, 42, 42, 168)  0           adjust_bn_2[0][0]                \n","__________________________________________________________________________________________________\n","activation_51 (Activation)      (None, 42, 42, 168)  0           adjust_bn_2[0][0]                \n","__________________________________________________________________________________________________\n","activation_53 (Activation)      (None, 42, 42, 168)  0           adjust_bn_2[0][0]                \n","__________________________________________________________________________________________________\n","activation_55 (Activation)      (None, 42, 42, 168)  0           normal_bn_1_2[0][0]              \n","__________________________________________________________________________________________________\n","separable_conv_1_normal_left1_2 (None, 42, 42, 168)  32424       activation_47[0][0]              \n","__________________________________________________________________________________________________\n","separable_conv_1_normal_right1_ (None, 42, 42, 168)  29736       activation_49[0][0]              \n","__________________________________________________________________________________________________\n","separable_conv_1_normal_left2_2 (None, 42, 42, 168)  32424       activation_51[0][0]              \n","__________________________________________________________________________________________________\n","separable_conv_1_normal_right2_ (None, 42, 42, 168)  29736       activation_53[0][0]              \n","__________________________________________________________________________________________________\n","separable_conv_1_normal_left5_2 (None, 42, 42, 168)  29736       activation_55[0][0]              \n","__________________________________________________________________________________________________\n","separable_conv_1_bn_normal_left (None, 42, 42, 168)  672         separable_conv_1_normal_left1_2[0\n","__________________________________________________________________________________________________\n","separable_conv_1_bn_normal_righ (None, 42, 42, 168)  672         separable_conv_1_normal_right1_2[\n","__________________________________________________________________________________________________\n","separable_conv_1_bn_normal_left (None, 42, 42, 168)  672         separable_conv_1_normal_left2_2[0\n","__________________________________________________________________________________________________\n","separable_conv_1_bn_normal_righ (None, 42, 42, 168)  672         separable_conv_1_normal_right2_2[\n","__________________________________________________________________________________________________\n","separable_conv_1_bn_normal_left (None, 42, 42, 168)  672         separable_conv_1_normal_left5_2[0\n","__________________________________________________________________________________________________\n","activation_48 (Activation)      (None, 42, 42, 168)  0           separable_conv_1_bn_normal_left1_\n","__________________________________________________________________________________________________\n","activation_50 (Activation)      (None, 42, 42, 168)  0           separable_conv_1_bn_normal_right1\n","__________________________________________________________________________________________________\n","activation_52 (Activation)      (None, 42, 42, 168)  0           separable_conv_1_bn_normal_left2_\n","__________________________________________________________________________________________________\n","activation_54 (Activation)      (None, 42, 42, 168)  0           separable_conv_1_bn_normal_right2\n","__________________________________________________________________________________________________\n","activation_56 (Activation)      (None, 42, 42, 168)  0           separable_conv_1_bn_normal_left5_\n","__________________________________________________________________________________________________\n","separable_conv_2_normal_left1_2 (None, 42, 42, 168)  32424       activation_48[0][0]              \n","__________________________________________________________________________________________________\n","separable_conv_2_normal_right1_ (None, 42, 42, 168)  29736       activation_50[0][0]              \n","__________________________________________________________________________________________________\n","separable_conv_2_normal_left2_2 (None, 42, 42, 168)  32424       activation_52[0][0]              \n","__________________________________________________________________________________________________\n","separable_conv_2_normal_right2_ (None, 42, 42, 168)  29736       activation_54[0][0]              \n","__________________________________________________________________________________________________\n","separable_conv_2_normal_left5_2 (None, 42, 42, 168)  29736       activation_56[0][0]              \n","__________________________________________________________________________________________________\n","separable_conv_2_bn_normal_left (None, 42, 42, 168)  672         separable_conv_2_normal_left1_2[0\n","__________________________________________________________________________________________________\n","separable_conv_2_bn_normal_righ (None, 42, 42, 168)  672         separable_conv_2_normal_right1_2[\n","__________________________________________________________________________________________________\n","separable_conv_2_bn_normal_left (None, 42, 42, 168)  672         separable_conv_2_normal_left2_2[0\n","__________________________________________________________________________________________________\n","separable_conv_2_bn_normal_righ (None, 42, 42, 168)  672         separable_conv_2_normal_right2_2[\n","__________________________________________________________________________________________________\n","normal_left3_2 (AveragePooling2 (None, 42, 42, 168)  0           normal_bn_1_2[0][0]              \n","__________________________________________________________________________________________________\n","normal_left4_2 (AveragePooling2 (None, 42, 42, 168)  0           adjust_bn_2[0][0]                \n","__________________________________________________________________________________________________\n","normal_right4_2 (AveragePooling (None, 42, 42, 168)  0           adjust_bn_2[0][0]                \n","__________________________________________________________________________________________________\n","separable_conv_2_bn_normal_left (None, 42, 42, 168)  672         separable_conv_2_normal_left5_2[0\n","__________________________________________________________________________________________________\n","normal_add_1_2 (Add)            (None, 42, 42, 168)  0           separable_conv_2_bn_normal_left1_\n","                                                                 separable_conv_2_bn_normal_right1\n","__________________________________________________________________________________________________\n","normal_add_2_2 (Add)            (None, 42, 42, 168)  0           separable_conv_2_bn_normal_left2_\n","                                                                 separable_conv_2_bn_normal_right2\n","__________________________________________________________________________________________________\n","normal_add_3_2 (Add)            (None, 42, 42, 168)  0           normal_left3_2[0][0]             \n","                                                                 adjust_bn_2[0][0]                \n","__________________________________________________________________________________________________\n","normal_add_4_2 (Add)            (None, 42, 42, 168)  0           normal_left4_2[0][0]             \n","                                                                 normal_right4_2[0][0]            \n","__________________________________________________________________________________________________\n","normal_add_5_2 (Add)            (None, 42, 42, 168)  0           separable_conv_2_bn_normal_left5_\n","                                                                 normal_bn_1_2[0][0]              \n","__________________________________________________________________________________________________\n","normal_concat_2 (Concatenate)   (None, 42, 42, 1008) 0           adjust_bn_2[0][0]                \n","                                                                 normal_add_1_2[0][0]             \n","                                                                 normal_add_2_2[0][0]             \n","                                                                 normal_add_3_2[0][0]             \n","                                                                 normal_add_4_2[0][0]             \n","                                                                 normal_add_5_2[0][0]             \n","__________________________________________________________________________________________________\n","activation_57 (Activation)      (None, 42, 42, 1008) 0           normal_concat_1[0][0]            \n","__________________________________________________________________________________________________\n","activation_58 (Activation)      (None, 42, 42, 1008) 0           normal_concat_2[0][0]            \n","__________________________________________________________________________________________________\n","adjust_conv_projection_3 (Conv2 (None, 42, 42, 168)  169344      activation_57[0][0]              \n","__________________________________________________________________________________________________\n","normal_conv_1_3 (Conv2D)        (None, 42, 42, 168)  169344      activation_58[0][0]              \n","__________________________________________________________________________________________________\n","adjust_bn_3 (BatchNormalization (None, 42, 42, 168)  672         adjust_conv_projection_3[0][0]   \n","__________________________________________________________________________________________________\n","normal_bn_1_3 (BatchNormalizati (None, 42, 42, 168)  672         normal_conv_1_3[0][0]            \n","__________________________________________________________________________________________________\n","activation_59 (Activation)      (None, 42, 42, 168)  0           normal_bn_1_3[0][0]              \n","__________________________________________________________________________________________________\n","activation_61 (Activation)      (None, 42, 42, 168)  0           adjust_bn_3[0][0]                \n","__________________________________________________________________________________________________\n","activation_63 (Activation)      (None, 42, 42, 168)  0           adjust_bn_3[0][0]                \n","__________________________________________________________________________________________________\n","activation_65 (Activation)      (None, 42, 42, 168)  0           adjust_bn_3[0][0]                \n","__________________________________________________________________________________________________\n","activation_67 (Activation)      (None, 42, 42, 168)  0           normal_bn_1_3[0][0]              \n","__________________________________________________________________________________________________\n","separable_conv_1_normal_left1_3 (None, 42, 42, 168)  32424       activation_59[0][0]              \n","__________________________________________________________________________________________________\n","separable_conv_1_normal_right1_ (None, 42, 42, 168)  29736       activation_61[0][0]              \n","__________________________________________________________________________________________________\n","separable_conv_1_normal_left2_3 (None, 42, 42, 168)  32424       activation_63[0][0]              \n","__________________________________________________________________________________________________\n","separable_conv_1_normal_right2_ (None, 42, 42, 168)  29736       activation_65[0][0]              \n","__________________________________________________________________________________________________\n","separable_conv_1_normal_left5_3 (None, 42, 42, 168)  29736       activation_67[0][0]              \n","__________________________________________________________________________________________________\n","separable_conv_1_bn_normal_left (None, 42, 42, 168)  672         separable_conv_1_normal_left1_3[0\n","__________________________________________________________________________________________________\n","separable_conv_1_bn_normal_righ (None, 42, 42, 168)  672         separable_conv_1_normal_right1_3[\n","__________________________________________________________________________________________________\n","separable_conv_1_bn_normal_left (None, 42, 42, 168)  672         separable_conv_1_normal_left2_3[0\n","__________________________________________________________________________________________________\n","separable_conv_1_bn_normal_righ (None, 42, 42, 168)  672         separable_conv_1_normal_right2_3[\n","__________________________________________________________________________________________________\n","separable_conv_1_bn_normal_left (None, 42, 42, 168)  672         separable_conv_1_normal_left5_3[0\n","__________________________________________________________________________________________________\n","activation_60 (Activation)      (None, 42, 42, 168)  0           separable_conv_1_bn_normal_left1_\n","__________________________________________________________________________________________________\n","activation_62 (Activation)      (None, 42, 42, 168)  0           separable_conv_1_bn_normal_right1\n","__________________________________________________________________________________________________\n","activation_64 (Activation)      (None, 42, 42, 168)  0           separable_conv_1_bn_normal_left2_\n","__________________________________________________________________________________________________\n","activation_66 (Activation)      (None, 42, 42, 168)  0           separable_conv_1_bn_normal_right2\n","__________________________________________________________________________________________________\n","activation_68 (Activation)      (None, 42, 42, 168)  0           separable_conv_1_bn_normal_left5_\n","__________________________________________________________________________________________________\n","separable_conv_2_normal_left1_3 (None, 42, 42, 168)  32424       activation_60[0][0]              \n","__________________________________________________________________________________________________\n","separable_conv_2_normal_right1_ (None, 42, 42, 168)  29736       activation_62[0][0]              \n","__________________________________________________________________________________________________\n","separable_conv_2_normal_left2_3 (None, 42, 42, 168)  32424       activation_64[0][0]              \n","__________________________________________________________________________________________________\n","separable_conv_2_normal_right2_ (None, 42, 42, 168)  29736       activation_66[0][0]              \n","__________________________________________________________________________________________________\n","separable_conv_2_normal_left5_3 (None, 42, 42, 168)  29736       activation_68[0][0]              \n","__________________________________________________________________________________________________\n","separable_conv_2_bn_normal_left (None, 42, 42, 168)  672         separable_conv_2_normal_left1_3[0\n","__________________________________________________________________________________________________\n","separable_conv_2_bn_normal_righ (None, 42, 42, 168)  672         separable_conv_2_normal_right1_3[\n","__________________________________________________________________________________________________\n","separable_conv_2_bn_normal_left (None, 42, 42, 168)  672         separable_conv_2_normal_left2_3[0\n","__________________________________________________________________________________________________\n","separable_conv_2_bn_normal_righ (None, 42, 42, 168)  672         separable_conv_2_normal_right2_3[\n","__________________________________________________________________________________________________\n","normal_left3_3 (AveragePooling2 (None, 42, 42, 168)  0           normal_bn_1_3[0][0]              \n","__________________________________________________________________________________________________\n","normal_left4_3 (AveragePooling2 (None, 42, 42, 168)  0           adjust_bn_3[0][0]                \n","__________________________________________________________________________________________________\n","normal_right4_3 (AveragePooling (None, 42, 42, 168)  0           adjust_bn_3[0][0]                \n","__________________________________________________________________________________________________\n","separable_conv_2_bn_normal_left (None, 42, 42, 168)  672         separable_conv_2_normal_left5_3[0\n","__________________________________________________________________________________________________\n","normal_add_1_3 (Add)            (None, 42, 42, 168)  0           separable_conv_2_bn_normal_left1_\n","                                                                 separable_conv_2_bn_normal_right1\n","__________________________________________________________________________________________________\n","normal_add_2_3 (Add)            (None, 42, 42, 168)  0           separable_conv_2_bn_normal_left2_\n","                                                                 separable_conv_2_bn_normal_right2\n","__________________________________________________________________________________________________\n","normal_add_3_3 (Add)            (None, 42, 42, 168)  0           normal_left3_3[0][0]             \n","                                                                 adjust_bn_3[0][0]                \n","__________________________________________________________________________________________________\n","normal_add_4_3 (Add)            (None, 42, 42, 168)  0           normal_left4_3[0][0]             \n","                                                                 normal_right4_3[0][0]            \n","__________________________________________________________________________________________________\n","normal_add_5_3 (Add)            (None, 42, 42, 168)  0           separable_conv_2_bn_normal_left5_\n","                                                                 normal_bn_1_3[0][0]              \n","__________________________________________________________________________________________________\n","normal_concat_3 (Concatenate)   (None, 42, 42, 1008) 0           adjust_bn_3[0][0]                \n","                                                                 normal_add_1_3[0][0]             \n","                                                                 normal_add_2_3[0][0]             \n","                                                                 normal_add_3_3[0][0]             \n","                                                                 normal_add_4_3[0][0]             \n","                                                                 normal_add_5_3[0][0]             \n","__________________________________________________________________________________________________\n","activation_69 (Activation)      (None, 42, 42, 1008) 0           normal_concat_2[0][0]            \n","__________________________________________________________________________________________________\n","activation_70 (Activation)      (None, 42, 42, 1008) 0           normal_concat_3[0][0]            \n","__________________________________________________________________________________________________\n","adjust_conv_projection_4 (Conv2 (None, 42, 42, 168)  169344      activation_69[0][0]              \n","__________________________________________________________________________________________________\n","normal_conv_1_4 (Conv2D)        (None, 42, 42, 168)  169344      activation_70[0][0]              \n","__________________________________________________________________________________________________\n","adjust_bn_4 (BatchNormalization (None, 42, 42, 168)  672         adjust_conv_projection_4[0][0]   \n","__________________________________________________________________________________________________\n","normal_bn_1_4 (BatchNormalizati (None, 42, 42, 168)  672         normal_conv_1_4[0][0]            \n","__________________________________________________________________________________________________\n","activation_71 (Activation)      (None, 42, 42, 168)  0           normal_bn_1_4[0][0]              \n","__________________________________________________________________________________________________\n","activation_73 (Activation)      (None, 42, 42, 168)  0           adjust_bn_4[0][0]                \n","__________________________________________________________________________________________________\n","activation_75 (Activation)      (None, 42, 42, 168)  0           adjust_bn_4[0][0]                \n","__________________________________________________________________________________________________\n","activation_77 (Activation)      (None, 42, 42, 168)  0           adjust_bn_4[0][0]                \n","__________________________________________________________________________________________________\n","activation_79 (Activation)      (None, 42, 42, 168)  0           normal_bn_1_4[0][0]              \n","__________________________________________________________________________________________________\n","separable_conv_1_normal_left1_4 (None, 42, 42, 168)  32424       activation_71[0][0]              \n","__________________________________________________________________________________________________\n","separable_conv_1_normal_right1_ (None, 42, 42, 168)  29736       activation_73[0][0]              \n","__________________________________________________________________________________________________\n","separable_conv_1_normal_left2_4 (None, 42, 42, 168)  32424       activation_75[0][0]              \n","__________________________________________________________________________________________________\n","separable_conv_1_normal_right2_ (None, 42, 42, 168)  29736       activation_77[0][0]              \n","__________________________________________________________________________________________________\n","separable_conv_1_normal_left5_4 (None, 42, 42, 168)  29736       activation_79[0][0]              \n","__________________________________________________________________________________________________\n","separable_conv_1_bn_normal_left (None, 42, 42, 168)  672         separable_conv_1_normal_left1_4[0\n","__________________________________________________________________________________________________\n","separable_conv_1_bn_normal_righ (None, 42, 42, 168)  672         separable_conv_1_normal_right1_4[\n","__________________________________________________________________________________________________\n","separable_conv_1_bn_normal_left (None, 42, 42, 168)  672         separable_conv_1_normal_left2_4[0\n","__________________________________________________________________________________________________\n","separable_conv_1_bn_normal_righ (None, 42, 42, 168)  672         separable_conv_1_normal_right2_4[\n","__________________________________________________________________________________________________\n","separable_conv_1_bn_normal_left (None, 42, 42, 168)  672         separable_conv_1_normal_left5_4[0\n","__________________________________________________________________________________________________\n","activation_72 (Activation)      (None, 42, 42, 168)  0           separable_conv_1_bn_normal_left1_\n","__________________________________________________________________________________________________\n","activation_74 (Activation)      (None, 42, 42, 168)  0           separable_conv_1_bn_normal_right1\n","__________________________________________________________________________________________________\n","activation_76 (Activation)      (None, 42, 42, 168)  0           separable_conv_1_bn_normal_left2_\n","__________________________________________________________________________________________________\n","activation_78 (Activation)      (None, 42, 42, 168)  0           separable_conv_1_bn_normal_right2\n","__________________________________________________________________________________________________\n","activation_80 (Activation)      (None, 42, 42, 168)  0           separable_conv_1_bn_normal_left5_\n","__________________________________________________________________________________________________\n","separable_conv_2_normal_left1_4 (None, 42, 42, 168)  32424       activation_72[0][0]              \n","__________________________________________________________________________________________________\n","separable_conv_2_normal_right1_ (None, 42, 42, 168)  29736       activation_74[0][0]              \n","__________________________________________________________________________________________________\n","separable_conv_2_normal_left2_4 (None, 42, 42, 168)  32424       activation_76[0][0]              \n","__________________________________________________________________________________________________\n","separable_conv_2_normal_right2_ (None, 42, 42, 168)  29736       activation_78[0][0]              \n","__________________________________________________________________________________________________\n","separable_conv_2_normal_left5_4 (None, 42, 42, 168)  29736       activation_80[0][0]              \n","__________________________________________________________________________________________________\n","separable_conv_2_bn_normal_left (None, 42, 42, 168)  672         separable_conv_2_normal_left1_4[0\n","__________________________________________________________________________________________________\n","separable_conv_2_bn_normal_righ (None, 42, 42, 168)  672         separable_conv_2_normal_right1_4[\n","__________________________________________________________________________________________________\n","separable_conv_2_bn_normal_left (None, 42, 42, 168)  672         separable_conv_2_normal_left2_4[0\n","__________________________________________________________________________________________________\n","separable_conv_2_bn_normal_righ (None, 42, 42, 168)  672         separable_conv_2_normal_right2_4[\n","__________________________________________________________________________________________________\n","normal_left3_4 (AveragePooling2 (None, 42, 42, 168)  0           normal_bn_1_4[0][0]              \n","__________________________________________________________________________________________________\n","normal_left4_4 (AveragePooling2 (None, 42, 42, 168)  0           adjust_bn_4[0][0]                \n","__________________________________________________________________________________________________\n","normal_right4_4 (AveragePooling (None, 42, 42, 168)  0           adjust_bn_4[0][0]                \n","__________________________________________________________________________________________________\n","separable_conv_2_bn_normal_left (None, 42, 42, 168)  672         separable_conv_2_normal_left5_4[0\n","__________________________________________________________________________________________________\n","normal_add_1_4 (Add)            (None, 42, 42, 168)  0           separable_conv_2_bn_normal_left1_\n","                                                                 separable_conv_2_bn_normal_right1\n","__________________________________________________________________________________________________\n","normal_add_2_4 (Add)            (None, 42, 42, 168)  0           separable_conv_2_bn_normal_left2_\n","                                                                 separable_conv_2_bn_normal_right2\n","__________________________________________________________________________________________________\n","normal_add_3_4 (Add)            (None, 42, 42, 168)  0           normal_left3_4[0][0]             \n","                                                                 adjust_bn_4[0][0]                \n","__________________________________________________________________________________________________\n","normal_add_4_4 (Add)            (None, 42, 42, 168)  0           normal_left4_4[0][0]             \n","                                                                 normal_right4_4[0][0]            \n","__________________________________________________________________________________________________\n","normal_add_5_4 (Add)            (None, 42, 42, 168)  0           separable_conv_2_bn_normal_left5_\n","                                                                 normal_bn_1_4[0][0]              \n","__________________________________________________________________________________________________\n","normal_concat_4 (Concatenate)   (None, 42, 42, 1008) 0           adjust_bn_4[0][0]                \n","                                                                 normal_add_1_4[0][0]             \n","                                                                 normal_add_2_4[0][0]             \n","                                                                 normal_add_3_4[0][0]             \n","                                                                 normal_add_4_4[0][0]             \n","                                                                 normal_add_5_4[0][0]             \n","__________________________________________________________________________________________________\n","activation_81 (Activation)      (None, 42, 42, 1008) 0           normal_concat_3[0][0]            \n","__________________________________________________________________________________________________\n","activation_82 (Activation)      (None, 42, 42, 1008) 0           normal_concat_4[0][0]            \n","__________________________________________________________________________________________________\n","adjust_conv_projection_5 (Conv2 (None, 42, 42, 168)  169344      activation_81[0][0]              \n","__________________________________________________________________________________________________\n","normal_conv_1_5 (Conv2D)        (None, 42, 42, 168)  169344      activation_82[0][0]              \n","__________________________________________________________________________________________________\n","adjust_bn_5 (BatchNormalization (None, 42, 42, 168)  672         adjust_conv_projection_5[0][0]   \n","__________________________________________________________________________________________________\n","normal_bn_1_5 (BatchNormalizati (None, 42, 42, 168)  672         normal_conv_1_5[0][0]            \n","__________________________________________________________________________________________________\n","activation_83 (Activation)      (None, 42, 42, 168)  0           normal_bn_1_5[0][0]              \n","__________________________________________________________________________________________________\n","activation_85 (Activation)      (None, 42, 42, 168)  0           adjust_bn_5[0][0]                \n","__________________________________________________________________________________________________\n","activation_87 (Activation)      (None, 42, 42, 168)  0           adjust_bn_5[0][0]                \n","__________________________________________________________________________________________________\n","activation_89 (Activation)      (None, 42, 42, 168)  0           adjust_bn_5[0][0]                \n","__________________________________________________________________________________________________\n","activation_91 (Activation)      (None, 42, 42, 168)  0           normal_bn_1_5[0][0]              \n","__________________________________________________________________________________________________\n","separable_conv_1_normal_left1_5 (None, 42, 42, 168)  32424       activation_83[0][0]              \n","__________________________________________________________________________________________________\n","separable_conv_1_normal_right1_ (None, 42, 42, 168)  29736       activation_85[0][0]              \n","__________________________________________________________________________________________________\n","separable_conv_1_normal_left2_5 (None, 42, 42, 168)  32424       activation_87[0][0]              \n","__________________________________________________________________________________________________\n","separable_conv_1_normal_right2_ (None, 42, 42, 168)  29736       activation_89[0][0]              \n","__________________________________________________________________________________________________\n","separable_conv_1_normal_left5_5 (None, 42, 42, 168)  29736       activation_91[0][0]              \n","__________________________________________________________________________________________________\n","separable_conv_1_bn_normal_left (None, 42, 42, 168)  672         separable_conv_1_normal_left1_5[0\n","__________________________________________________________________________________________________\n","separable_conv_1_bn_normal_righ (None, 42, 42, 168)  672         separable_conv_1_normal_right1_5[\n","__________________________________________________________________________________________________\n","separable_conv_1_bn_normal_left (None, 42, 42, 168)  672         separable_conv_1_normal_left2_5[0\n","__________________________________________________________________________________________________\n","separable_conv_1_bn_normal_righ (None, 42, 42, 168)  672         separable_conv_1_normal_right2_5[\n","__________________________________________________________________________________________________\n","separable_conv_1_bn_normal_left (None, 42, 42, 168)  672         separable_conv_1_normal_left5_5[0\n","__________________________________________________________________________________________________\n","activation_84 (Activation)      (None, 42, 42, 168)  0           separable_conv_1_bn_normal_left1_\n","__________________________________________________________________________________________________\n","activation_86 (Activation)      (None, 42, 42, 168)  0           separable_conv_1_bn_normal_right1\n","__________________________________________________________________________________________________\n","activation_88 (Activation)      (None, 42, 42, 168)  0           separable_conv_1_bn_normal_left2_\n","__________________________________________________________________________________________________\n","activation_90 (Activation)      (None, 42, 42, 168)  0           separable_conv_1_bn_normal_right2\n","__________________________________________________________________________________________________\n","activation_92 (Activation)      (None, 42, 42, 168)  0           separable_conv_1_bn_normal_left5_\n","__________________________________________________________________________________________________\n","separable_conv_2_normal_left1_5 (None, 42, 42, 168)  32424       activation_84[0][0]              \n","__________________________________________________________________________________________________\n","separable_conv_2_normal_right1_ (None, 42, 42, 168)  29736       activation_86[0][0]              \n","__________________________________________________________________________________________________\n","separable_conv_2_normal_left2_5 (None, 42, 42, 168)  32424       activation_88[0][0]              \n","__________________________________________________________________________________________________\n","separable_conv_2_normal_right2_ (None, 42, 42, 168)  29736       activation_90[0][0]              \n","__________________________________________________________________________________________________\n","separable_conv_2_normal_left5_5 (None, 42, 42, 168)  29736       activation_92[0][0]              \n","__________________________________________________________________________________________________\n","separable_conv_2_bn_normal_left (None, 42, 42, 168)  672         separable_conv_2_normal_left1_5[0\n","__________________________________________________________________________________________________\n","separable_conv_2_bn_normal_righ (None, 42, 42, 168)  672         separable_conv_2_normal_right1_5[\n","__________________________________________________________________________________________________\n","separable_conv_2_bn_normal_left (None, 42, 42, 168)  672         separable_conv_2_normal_left2_5[0\n","__________________________________________________________________________________________________\n","separable_conv_2_bn_normal_righ (None, 42, 42, 168)  672         separable_conv_2_normal_right2_5[\n","__________________________________________________________________________________________________\n","normal_left3_5 (AveragePooling2 (None, 42, 42, 168)  0           normal_bn_1_5[0][0]              \n","__________________________________________________________________________________________________\n","normal_left4_5 (AveragePooling2 (None, 42, 42, 168)  0           adjust_bn_5[0][0]                \n","__________________________________________________________________________________________________\n","normal_right4_5 (AveragePooling (None, 42, 42, 168)  0           adjust_bn_5[0][0]                \n","__________________________________________________________________________________________________\n","separable_conv_2_bn_normal_left (None, 42, 42, 168)  672         separable_conv_2_normal_left5_5[0\n","__________________________________________________________________________________________________\n","normal_add_1_5 (Add)            (None, 42, 42, 168)  0           separable_conv_2_bn_normal_left1_\n","                                                                 separable_conv_2_bn_normal_right1\n","__________________________________________________________________________________________________\n","normal_add_2_5 (Add)            (None, 42, 42, 168)  0           separable_conv_2_bn_normal_left2_\n","                                                                 separable_conv_2_bn_normal_right2\n","__________________________________________________________________________________________________\n","normal_add_3_5 (Add)            (None, 42, 42, 168)  0           normal_left3_5[0][0]             \n","                                                                 adjust_bn_5[0][0]                \n","__________________________________________________________________________________________________\n","normal_add_4_5 (Add)            (None, 42, 42, 168)  0           normal_left4_5[0][0]             \n","                                                                 normal_right4_5[0][0]            \n","__________________________________________________________________________________________________\n","normal_add_5_5 (Add)            (None, 42, 42, 168)  0           separable_conv_2_bn_normal_left5_\n","                                                                 normal_bn_1_5[0][0]              \n","__________________________________________________________________________________________________\n","normal_concat_5 (Concatenate)   (None, 42, 42, 1008) 0           adjust_bn_5[0][0]                \n","                                                                 normal_add_1_5[0][0]             \n","                                                                 normal_add_2_5[0][0]             \n","                                                                 normal_add_3_5[0][0]             \n","                                                                 normal_add_4_5[0][0]             \n","                                                                 normal_add_5_5[0][0]             \n","__________________________________________________________________________________________________\n","activation_94 (Activation)      (None, 42, 42, 1008) 0           normal_concat_5[0][0]            \n","__________________________________________________________________________________________________\n","activation_93 (Activation)      (None, 42, 42, 1008) 0           normal_concat_4[0][0]            \n","__________________________________________________________________________________________________\n","reduction_conv_1_reduce_6 (Conv (None, 42, 42, 336)  338688      activation_94[0][0]              \n","__________________________________________________________________________________________________\n","adjust_conv_projection_reduce_6 (None, 42, 42, 336)  338688      activation_93[0][0]              \n","__________________________________________________________________________________________________\n","reduction_bn_1_reduce_6 (BatchN (None, 42, 42, 336)  1344        reduction_conv_1_reduce_6[0][0]  \n","__________________________________________________________________________________________________\n","adjust_bn_reduce_6 (BatchNormal (None, 42, 42, 336)  1344        adjust_conv_projection_reduce_6[0\n","__________________________________________________________________________________________________\n","activation_95 (Activation)      (None, 42, 42, 336)  0           reduction_bn_1_reduce_6[0][0]    \n","__________________________________________________________________________________________________\n","activation_97 (Activation)      (None, 42, 42, 336)  0           adjust_bn_reduce_6[0][0]         \n","__________________________________________________________________________________________________\n","separable_conv_1_pad_reduction_ (None, 45, 45, 336)  0           activation_95[0][0]              \n","__________________________________________________________________________________________________\n","separable_conv_1_pad_reduction_ (None, 47, 47, 336)  0           activation_97[0][0]              \n","__________________________________________________________________________________________________\n","separable_conv_1_reduction_left (None, 21, 21, 336)  121296      separable_conv_1_pad_reduction_le\n","__________________________________________________________________________________________________\n","separable_conv_1_reduction_righ (None, 21, 21, 336)  129360      separable_conv_1_pad_reduction_ri\n","__________________________________________________________________________________________________\n","separable_conv_1_bn_reduction_l (None, 21, 21, 336)  1344        separable_conv_1_reduction_left1_\n","__________________________________________________________________________________________________\n","separable_conv_1_bn_reduction_r (None, 21, 21, 336)  1344        separable_conv_1_reduction_right1\n","__________________________________________________________________________________________________\n","activation_96 (Activation)      (None, 21, 21, 336)  0           separable_conv_1_bn_reduction_lef\n","__________________________________________________________________________________________________\n","activation_98 (Activation)      (None, 21, 21, 336)  0           separable_conv_1_bn_reduction_rig\n","__________________________________________________________________________________________________\n","separable_conv_2_reduction_left (None, 21, 21, 336)  121296      activation_96[0][0]              \n","__________________________________________________________________________________________________\n","separable_conv_2_reduction_righ (None, 21, 21, 336)  129360      activation_98[0][0]              \n","__________________________________________________________________________________________________\n","activation_99 (Activation)      (None, 42, 42, 336)  0           adjust_bn_reduce_6[0][0]         \n","__________________________________________________________________________________________________\n","separable_conv_2_bn_reduction_l (None, 21, 21, 336)  1344        separable_conv_2_reduction_left1_\n","__________________________________________________________________________________________________\n","separable_conv_2_bn_reduction_r (None, 21, 21, 336)  1344        separable_conv_2_reduction_right1\n","__________________________________________________________________________________________________\n","separable_conv_1_pad_reduction_ (None, 47, 47, 336)  0           activation_99[0][0]              \n","__________________________________________________________________________________________________\n","activation_101 (Activation)     (None, 42, 42, 336)  0           adjust_bn_reduce_6[0][0]         \n","__________________________________________________________________________________________________\n","reduction_add_1_reduce_6 (Add)  (None, 21, 21, 336)  0           separable_conv_2_bn_reduction_lef\n","                                                                 separable_conv_2_bn_reduction_rig\n","__________________________________________________________________________________________________\n","separable_conv_1_reduction_righ (None, 21, 21, 336)  129360      separable_conv_1_pad_reduction_ri\n","__________________________________________________________________________________________________\n","separable_conv_1_pad_reduction_ (None, 45, 45, 336)  0           activation_101[0][0]             \n","__________________________________________________________________________________________________\n","activation_103 (Activation)     (None, 21, 21, 336)  0           reduction_add_1_reduce_6[0][0]   \n","__________________________________________________________________________________________________\n","separable_conv_1_bn_reduction_r (None, 21, 21, 336)  1344        separable_conv_1_reduction_right2\n","__________________________________________________________________________________________________\n","separable_conv_1_reduction_righ (None, 21, 21, 336)  121296      separable_conv_1_pad_reduction_ri\n","__________________________________________________________________________________________________\n","separable_conv_1_reduction_left (None, 21, 21, 336)  115920      activation_103[0][0]             \n","__________________________________________________________________________________________________\n","activation_100 (Activation)     (None, 21, 21, 336)  0           separable_conv_1_bn_reduction_rig\n","__________________________________________________________________________________________________\n","separable_conv_1_bn_reduction_r (None, 21, 21, 336)  1344        separable_conv_1_reduction_right3\n","__________________________________________________________________________________________________\n","separable_conv_1_bn_reduction_l (None, 21, 21, 336)  1344        separable_conv_1_reduction_left4_\n","__________________________________________________________________________________________________\n","reduction_pad_1_reduce_6 (ZeroP (None, 43, 43, 336)  0           reduction_bn_1_reduce_6[0][0]    \n","__________________________________________________________________________________________________\n","separable_conv_2_reduction_righ (None, 21, 21, 336)  129360      activation_100[0][0]             \n","__________________________________________________________________________________________________\n","activation_102 (Activation)     (None, 21, 21, 336)  0           separable_conv_1_bn_reduction_rig\n","__________________________________________________________________________________________________\n","activation_104 (Activation)     (None, 21, 21, 336)  0           separable_conv_1_bn_reduction_lef\n","__________________________________________________________________________________________________\n","reduction_left2_reduce_6 (MaxPo (None, 21, 21, 336)  0           reduction_pad_1_reduce_6[0][0]   \n","__________________________________________________________________________________________________\n","separable_conv_2_bn_reduction_r (None, 21, 21, 336)  1344        separable_conv_2_reduction_right2\n","__________________________________________________________________________________________________\n","separable_conv_2_reduction_righ (None, 21, 21, 336)  121296      activation_102[0][0]             \n","__________________________________________________________________________________________________\n","separable_conv_2_reduction_left (None, 21, 21, 336)  115920      activation_104[0][0]             \n","__________________________________________________________________________________________________\n","adjust_relu_1_7 (Activation)    (None, 42, 42, 1008) 0           normal_concat_4[0][0]            \n","__________________________________________________________________________________________________\n","reduction_add_2_reduce_6 (Add)  (None, 21, 21, 336)  0           reduction_left2_reduce_6[0][0]   \n","                                                                 separable_conv_2_bn_reduction_rig\n","__________________________________________________________________________________________________\n","reduction_left3_reduce_6 (Avera (None, 21, 21, 336)  0           reduction_pad_1_reduce_6[0][0]   \n","__________________________________________________________________________________________________\n","separable_conv_2_bn_reduction_r (None, 21, 21, 336)  1344        separable_conv_2_reduction_right3\n","__________________________________________________________________________________________________\n","reduction_left4_reduce_6 (Avera (None, 21, 21, 336)  0           reduction_add_1_reduce_6[0][0]   \n","__________________________________________________________________________________________________\n","separable_conv_2_bn_reduction_l (None, 21, 21, 336)  1344        separable_conv_2_reduction_left4_\n","__________________________________________________________________________________________________\n","reduction_right5_reduce_6 (MaxP (None, 21, 21, 336)  0           reduction_pad_1_reduce_6[0][0]   \n","__________________________________________________________________________________________________\n","zero_padding2d_2 (ZeroPadding2D (None, 43, 43, 1008) 0           adjust_relu_1_7[0][0]            \n","__________________________________________________________________________________________________\n","reduction_add3_reduce_6 (Add)   (None, 21, 21, 336)  0           reduction_left3_reduce_6[0][0]   \n","                                                                 separable_conv_2_bn_reduction_rig\n","__________________________________________________________________________________________________\n","add_2 (Add)                     (None, 21, 21, 336)  0           reduction_add_2_reduce_6[0][0]   \n","                                                                 reduction_left4_reduce_6[0][0]   \n","__________________________________________________________________________________________________\n","reduction_add4_reduce_6 (Add)   (None, 21, 21, 336)  0           separable_conv_2_bn_reduction_lef\n","                                                                 reduction_right5_reduce_6[0][0]  \n","__________________________________________________________________________________________________\n","cropping2d_2 (Cropping2D)       (None, 42, 42, 1008) 0           zero_padding2d_2[0][0]           \n","__________________________________________________________________________________________________\n","reduction_concat_reduce_6 (Conc (None, 21, 21, 1344) 0           reduction_add_2_reduce_6[0][0]   \n","                                                                 reduction_add3_reduce_6[0][0]    \n","                                                                 add_2[0][0]                      \n","                                                                 reduction_add4_reduce_6[0][0]    \n","__________________________________________________________________________________________________\n","adjust_avg_pool_1_7 (AveragePoo (None, 21, 21, 1008) 0           adjust_relu_1_7[0][0]            \n","__________________________________________________________________________________________________\n","adjust_avg_pool_2_7 (AveragePoo (None, 21, 21, 1008) 0           cropping2d_2[0][0]               \n","__________________________________________________________________________________________________\n","adjust_conv_1_7 (Conv2D)        (None, 21, 21, 168)  169344      adjust_avg_pool_1_7[0][0]        \n","__________________________________________________________________________________________________\n","adjust_conv_2_7 (Conv2D)        (None, 21, 21, 168)  169344      adjust_avg_pool_2_7[0][0]        \n","__________________________________________________________________________________________________\n","activation_105 (Activation)     (None, 21, 21, 1344) 0           reduction_concat_reduce_6[0][0]  \n","__________________________________________________________________________________________________\n","concatenate_2 (Concatenate)     (None, 21, 21, 336)  0           adjust_conv_1_7[0][0]            \n","                                                                 adjust_conv_2_7[0][0]            \n","__________________________________________________________________________________________________\n","normal_conv_1_7 (Conv2D)        (None, 21, 21, 336)  451584      activation_105[0][0]             \n","__________________________________________________________________________________________________\n","adjust_bn_7 (BatchNormalization (None, 21, 21, 336)  1344        concatenate_2[0][0]              \n","__________________________________________________________________________________________________\n","normal_bn_1_7 (BatchNormalizati (None, 21, 21, 336)  1344        normal_conv_1_7[0][0]            \n","__________________________________________________________________________________________________\n","activation_106 (Activation)     (None, 21, 21, 336)  0           normal_bn_1_7[0][0]              \n","__________________________________________________________________________________________________\n","activation_108 (Activation)     (None, 21, 21, 336)  0           adjust_bn_7[0][0]                \n","__________________________________________________________________________________________________\n","activation_110 (Activation)     (None, 21, 21, 336)  0           adjust_bn_7[0][0]                \n","__________________________________________________________________________________________________\n","activation_112 (Activation)     (None, 21, 21, 336)  0           adjust_bn_7[0][0]                \n","__________________________________________________________________________________________________\n","activation_114 (Activation)     (None, 21, 21, 336)  0           normal_bn_1_7[0][0]              \n","__________________________________________________________________________________________________\n","separable_conv_1_normal_left1_7 (None, 21, 21, 336)  121296      activation_106[0][0]             \n","__________________________________________________________________________________________________\n","separable_conv_1_normal_right1_ (None, 21, 21, 336)  115920      activation_108[0][0]             \n","__________________________________________________________________________________________________\n","separable_conv_1_normal_left2_7 (None, 21, 21, 336)  121296      activation_110[0][0]             \n","__________________________________________________________________________________________________\n","separable_conv_1_normal_right2_ (None, 21, 21, 336)  115920      activation_112[0][0]             \n","__________________________________________________________________________________________________\n","separable_conv_1_normal_left5_7 (None, 21, 21, 336)  115920      activation_114[0][0]             \n","__________________________________________________________________________________________________\n","separable_conv_1_bn_normal_left (None, 21, 21, 336)  1344        separable_conv_1_normal_left1_7[0\n","__________________________________________________________________________________________________\n","separable_conv_1_bn_normal_righ (None, 21, 21, 336)  1344        separable_conv_1_normal_right1_7[\n","__________________________________________________________________________________________________\n","separable_conv_1_bn_normal_left (None, 21, 21, 336)  1344        separable_conv_1_normal_left2_7[0\n","__________________________________________________________________________________________________\n","separable_conv_1_bn_normal_righ (None, 21, 21, 336)  1344        separable_conv_1_normal_right2_7[\n","__________________________________________________________________________________________________\n","separable_conv_1_bn_normal_left (None, 21, 21, 336)  1344        separable_conv_1_normal_left5_7[0\n","__________________________________________________________________________________________________\n","activation_107 (Activation)     (None, 21, 21, 336)  0           separable_conv_1_bn_normal_left1_\n","__________________________________________________________________________________________________\n","activation_109 (Activation)     (None, 21, 21, 336)  0           separable_conv_1_bn_normal_right1\n","__________________________________________________________________________________________________\n","activation_111 (Activation)     (None, 21, 21, 336)  0           separable_conv_1_bn_normal_left2_\n","__________________________________________________________________________________________________\n","activation_113 (Activation)     (None, 21, 21, 336)  0           separable_conv_1_bn_normal_right2\n","__________________________________________________________________________________________________\n","activation_115 (Activation)     (None, 21, 21, 336)  0           separable_conv_1_bn_normal_left5_\n","__________________________________________________________________________________________________\n","separable_conv_2_normal_left1_7 (None, 21, 21, 336)  121296      activation_107[0][0]             \n","__________________________________________________________________________________________________\n","separable_conv_2_normal_right1_ (None, 21, 21, 336)  115920      activation_109[0][0]             \n","__________________________________________________________________________________________________\n","separable_conv_2_normal_left2_7 (None, 21, 21, 336)  121296      activation_111[0][0]             \n","__________________________________________________________________________________________________\n","separable_conv_2_normal_right2_ (None, 21, 21, 336)  115920      activation_113[0][0]             \n","__________________________________________________________________________________________________\n","separable_conv_2_normal_left5_7 (None, 21, 21, 336)  115920      activation_115[0][0]             \n","__________________________________________________________________________________________________\n","separable_conv_2_bn_normal_left (None, 21, 21, 336)  1344        separable_conv_2_normal_left1_7[0\n","__________________________________________________________________________________________________\n","separable_conv_2_bn_normal_righ (None, 21, 21, 336)  1344        separable_conv_2_normal_right1_7[\n","__________________________________________________________________________________________________\n","separable_conv_2_bn_normal_left (None, 21, 21, 336)  1344        separable_conv_2_normal_left2_7[0\n","__________________________________________________________________________________________________\n","separable_conv_2_bn_normal_righ (None, 21, 21, 336)  1344        separable_conv_2_normal_right2_7[\n","__________________________________________________________________________________________________\n","normal_left3_7 (AveragePooling2 (None, 21, 21, 336)  0           normal_bn_1_7[0][0]              \n","__________________________________________________________________________________________________\n","normal_left4_7 (AveragePooling2 (None, 21, 21, 336)  0           adjust_bn_7[0][0]                \n","__________________________________________________________________________________________________\n","normal_right4_7 (AveragePooling (None, 21, 21, 336)  0           adjust_bn_7[0][0]                \n","__________________________________________________________________________________________________\n","separable_conv_2_bn_normal_left (None, 21, 21, 336)  1344        separable_conv_2_normal_left5_7[0\n","__________________________________________________________________________________________________\n","normal_add_1_7 (Add)            (None, 21, 21, 336)  0           separable_conv_2_bn_normal_left1_\n","                                                                 separable_conv_2_bn_normal_right1\n","__________________________________________________________________________________________________\n","normal_add_2_7 (Add)            (None, 21, 21, 336)  0           separable_conv_2_bn_normal_left2_\n","                                                                 separable_conv_2_bn_normal_right2\n","__________________________________________________________________________________________________\n","normal_add_3_7 (Add)            (None, 21, 21, 336)  0           normal_left3_7[0][0]             \n","                                                                 adjust_bn_7[0][0]                \n","__________________________________________________________________________________________________\n","normal_add_4_7 (Add)            (None, 21, 21, 336)  0           normal_left4_7[0][0]             \n","                                                                 normal_right4_7[0][0]            \n","__________________________________________________________________________________________________\n","normal_add_5_7 (Add)            (None, 21, 21, 336)  0           separable_conv_2_bn_normal_left5_\n","                                                                 normal_bn_1_7[0][0]              \n","__________________________________________________________________________________________________\n","normal_concat_7 (Concatenate)   (None, 21, 21, 2016) 0           adjust_bn_7[0][0]                \n","                                                                 normal_add_1_7[0][0]             \n","                                                                 normal_add_2_7[0][0]             \n","                                                                 normal_add_3_7[0][0]             \n","                                                                 normal_add_4_7[0][0]             \n","                                                                 normal_add_5_7[0][0]             \n","__________________________________________________________________________________________________\n","activation_116 (Activation)     (None, 21, 21, 1344) 0           reduction_concat_reduce_6[0][0]  \n","__________________________________________________________________________________________________\n","activation_117 (Activation)     (None, 21, 21, 2016) 0           normal_concat_7[0][0]            \n","__________________________________________________________________________________________________\n","adjust_conv_projection_8 (Conv2 (None, 21, 21, 336)  451584      activation_116[0][0]             \n","__________________________________________________________________________________________________\n","normal_conv_1_8 (Conv2D)        (None, 21, 21, 336)  677376      activation_117[0][0]             \n","__________________________________________________________________________________________________\n","adjust_bn_8 (BatchNormalization (None, 21, 21, 336)  1344        adjust_conv_projection_8[0][0]   \n","__________________________________________________________________________________________________\n","normal_bn_1_8 (BatchNormalizati (None, 21, 21, 336)  1344        normal_conv_1_8[0][0]            \n","__________________________________________________________________________________________________\n","activation_118 (Activation)     (None, 21, 21, 336)  0           normal_bn_1_8[0][0]              \n","__________________________________________________________________________________________________\n","activation_120 (Activation)     (None, 21, 21, 336)  0           adjust_bn_8[0][0]                \n","__________________________________________________________________________________________________\n","activation_122 (Activation)     (None, 21, 21, 336)  0           adjust_bn_8[0][0]                \n","__________________________________________________________________________________________________\n","activation_124 (Activation)     (None, 21, 21, 336)  0           adjust_bn_8[0][0]                \n","__________________________________________________________________________________________________\n","activation_126 (Activation)     (None, 21, 21, 336)  0           normal_bn_1_8[0][0]              \n","__________________________________________________________________________________________________\n","separable_conv_1_normal_left1_8 (None, 21, 21, 336)  121296      activation_118[0][0]             \n","__________________________________________________________________________________________________\n","separable_conv_1_normal_right1_ (None, 21, 21, 336)  115920      activation_120[0][0]             \n","__________________________________________________________________________________________________\n","separable_conv_1_normal_left2_8 (None, 21, 21, 336)  121296      activation_122[0][0]             \n","__________________________________________________________________________________________________\n","separable_conv_1_normal_right2_ (None, 21, 21, 336)  115920      activation_124[0][0]             \n","__________________________________________________________________________________________________\n","separable_conv_1_normal_left5_8 (None, 21, 21, 336)  115920      activation_126[0][0]             \n","__________________________________________________________________________________________________\n","separable_conv_1_bn_normal_left (None, 21, 21, 336)  1344        separable_conv_1_normal_left1_8[0\n","__________________________________________________________________________________________________\n","separable_conv_1_bn_normal_righ (None, 21, 21, 336)  1344        separable_conv_1_normal_right1_8[\n","__________________________________________________________________________________________________\n","separable_conv_1_bn_normal_left (None, 21, 21, 336)  1344        separable_conv_1_normal_left2_8[0\n","__________________________________________________________________________________________________\n","separable_conv_1_bn_normal_righ (None, 21, 21, 336)  1344        separable_conv_1_normal_right2_8[\n","__________________________________________________________________________________________________\n","separable_conv_1_bn_normal_left (None, 21, 21, 336)  1344        separable_conv_1_normal_left5_8[0\n","__________________________________________________________________________________________________\n","activation_119 (Activation)     (None, 21, 21, 336)  0           separable_conv_1_bn_normal_left1_\n","__________________________________________________________________________________________________\n","activation_121 (Activation)     (None, 21, 21, 336)  0           separable_conv_1_bn_normal_right1\n","__________________________________________________________________________________________________\n","activation_123 (Activation)     (None, 21, 21, 336)  0           separable_conv_1_bn_normal_left2_\n","__________________________________________________________________________________________________\n","activation_125 (Activation)     (None, 21, 21, 336)  0           separable_conv_1_bn_normal_right2\n","__________________________________________________________________________________________________\n","activation_127 (Activation)     (None, 21, 21, 336)  0           separable_conv_1_bn_normal_left5_\n","__________________________________________________________________________________________________\n","separable_conv_2_normal_left1_8 (None, 21, 21, 336)  121296      activation_119[0][0]             \n","__________________________________________________________________________________________________\n","separable_conv_2_normal_right1_ (None, 21, 21, 336)  115920      activation_121[0][0]             \n","__________________________________________________________________________________________________\n","separable_conv_2_normal_left2_8 (None, 21, 21, 336)  121296      activation_123[0][0]             \n","__________________________________________________________________________________________________\n","separable_conv_2_normal_right2_ (None, 21, 21, 336)  115920      activation_125[0][0]             \n","__________________________________________________________________________________________________\n","separable_conv_2_normal_left5_8 (None, 21, 21, 336)  115920      activation_127[0][0]             \n","__________________________________________________________________________________________________\n","separable_conv_2_bn_normal_left (None, 21, 21, 336)  1344        separable_conv_2_normal_left1_8[0\n","__________________________________________________________________________________________________\n","separable_conv_2_bn_normal_righ (None, 21, 21, 336)  1344        separable_conv_2_normal_right1_8[\n","__________________________________________________________________________________________________\n","separable_conv_2_bn_normal_left (None, 21, 21, 336)  1344        separable_conv_2_normal_left2_8[0\n","__________________________________________________________________________________________________\n","separable_conv_2_bn_normal_righ (None, 21, 21, 336)  1344        separable_conv_2_normal_right2_8[\n","__________________________________________________________________________________________________\n","normal_left3_8 (AveragePooling2 (None, 21, 21, 336)  0           normal_bn_1_8[0][0]              \n","__________________________________________________________________________________________________\n","normal_left4_8 (AveragePooling2 (None, 21, 21, 336)  0           adjust_bn_8[0][0]                \n","__________________________________________________________________________________________________\n","normal_right4_8 (AveragePooling (None, 21, 21, 336)  0           adjust_bn_8[0][0]                \n","__________________________________________________________________________________________________\n","separable_conv_2_bn_normal_left (None, 21, 21, 336)  1344        separable_conv_2_normal_left5_8[0\n","__________________________________________________________________________________________________\n","normal_add_1_8 (Add)            (None, 21, 21, 336)  0           separable_conv_2_bn_normal_left1_\n","                                                                 separable_conv_2_bn_normal_right1\n","__________________________________________________________________________________________________\n","normal_add_2_8 (Add)            (None, 21, 21, 336)  0           separable_conv_2_bn_normal_left2_\n","                                                                 separable_conv_2_bn_normal_right2\n","__________________________________________________________________________________________________\n","normal_add_3_8 (Add)            (None, 21, 21, 336)  0           normal_left3_8[0][0]             \n","                                                                 adjust_bn_8[0][0]                \n","__________________________________________________________________________________________________\n","normal_add_4_8 (Add)            (None, 21, 21, 336)  0           normal_left4_8[0][0]             \n","                                                                 normal_right4_8[0][0]            \n","__________________________________________________________________________________________________\n","normal_add_5_8 (Add)            (None, 21, 21, 336)  0           separable_conv_2_bn_normal_left5_\n","                                                                 normal_bn_1_8[0][0]              \n","__________________________________________________________________________________________________\n","normal_concat_8 (Concatenate)   (None, 21, 21, 2016) 0           adjust_bn_8[0][0]                \n","                                                                 normal_add_1_8[0][0]             \n","                                                                 normal_add_2_8[0][0]             \n","                                                                 normal_add_3_8[0][0]             \n","                                                                 normal_add_4_8[0][0]             \n","                                                                 normal_add_5_8[0][0]             \n","__________________________________________________________________________________________________\n","activation_128 (Activation)     (None, 21, 21, 2016) 0           normal_concat_7[0][0]            \n","__________________________________________________________________________________________________\n","activation_129 (Activation)     (None, 21, 21, 2016) 0           normal_concat_8[0][0]            \n","__________________________________________________________________________________________________\n","adjust_conv_projection_9 (Conv2 (None, 21, 21, 336)  677376      activation_128[0][0]             \n","__________________________________________________________________________________________________\n","normal_conv_1_9 (Conv2D)        (None, 21, 21, 336)  677376      activation_129[0][0]             \n","__________________________________________________________________________________________________\n","adjust_bn_9 (BatchNormalization (None, 21, 21, 336)  1344        adjust_conv_projection_9[0][0]   \n","__________________________________________________________________________________________________\n","normal_bn_1_9 (BatchNormalizati (None, 21, 21, 336)  1344        normal_conv_1_9[0][0]            \n","__________________________________________________________________________________________________\n","activation_130 (Activation)     (None, 21, 21, 336)  0           normal_bn_1_9[0][0]              \n","__________________________________________________________________________________________________\n","activation_132 (Activation)     (None, 21, 21, 336)  0           adjust_bn_9[0][0]                \n","__________________________________________________________________________________________________\n","activation_134 (Activation)     (None, 21, 21, 336)  0           adjust_bn_9[0][0]                \n","__________________________________________________________________________________________________\n","activation_136 (Activation)     (None, 21, 21, 336)  0           adjust_bn_9[0][0]                \n","__________________________________________________________________________________________________\n","activation_138 (Activation)     (None, 21, 21, 336)  0           normal_bn_1_9[0][0]              \n","__________________________________________________________________________________________________\n","separable_conv_1_normal_left1_9 (None, 21, 21, 336)  121296      activation_130[0][0]             \n","__________________________________________________________________________________________________\n","separable_conv_1_normal_right1_ (None, 21, 21, 336)  115920      activation_132[0][0]             \n","__________________________________________________________________________________________________\n","separable_conv_1_normal_left2_9 (None, 21, 21, 336)  121296      activation_134[0][0]             \n","__________________________________________________________________________________________________\n","separable_conv_1_normal_right2_ (None, 21, 21, 336)  115920      activation_136[0][0]             \n","__________________________________________________________________________________________________\n","separable_conv_1_normal_left5_9 (None, 21, 21, 336)  115920      activation_138[0][0]             \n","__________________________________________________________________________________________________\n","separable_conv_1_bn_normal_left (None, 21, 21, 336)  1344        separable_conv_1_normal_left1_9[0\n","__________________________________________________________________________________________________\n","separable_conv_1_bn_normal_righ (None, 21, 21, 336)  1344        separable_conv_1_normal_right1_9[\n","__________________________________________________________________________________________________\n","separable_conv_1_bn_normal_left (None, 21, 21, 336)  1344        separable_conv_1_normal_left2_9[0\n","__________________________________________________________________________________________________\n","separable_conv_1_bn_normal_righ (None, 21, 21, 336)  1344        separable_conv_1_normal_right2_9[\n","__________________________________________________________________________________________________\n","separable_conv_1_bn_normal_left (None, 21, 21, 336)  1344        separable_conv_1_normal_left5_9[0\n","__________________________________________________________________________________________________\n","activation_131 (Activation)     (None, 21, 21, 336)  0           separable_conv_1_bn_normal_left1_\n","__________________________________________________________________________________________________\n","activation_133 (Activation)     (None, 21, 21, 336)  0           separable_conv_1_bn_normal_right1\n","__________________________________________________________________________________________________\n","activation_135 (Activation)     (None, 21, 21, 336)  0           separable_conv_1_bn_normal_left2_\n","__________________________________________________________________________________________________\n","activation_137 (Activation)     (None, 21, 21, 336)  0           separable_conv_1_bn_normal_right2\n","__________________________________________________________________________________________________\n","activation_139 (Activation)     (None, 21, 21, 336)  0           separable_conv_1_bn_normal_left5_\n","__________________________________________________________________________________________________\n","separable_conv_2_normal_left1_9 (None, 21, 21, 336)  121296      activation_131[0][0]             \n","__________________________________________________________________________________________________\n","separable_conv_2_normal_right1_ (None, 21, 21, 336)  115920      activation_133[0][0]             \n","__________________________________________________________________________________________________\n","separable_conv_2_normal_left2_9 (None, 21, 21, 336)  121296      activation_135[0][0]             \n","__________________________________________________________________________________________________\n","separable_conv_2_normal_right2_ (None, 21, 21, 336)  115920      activation_137[0][0]             \n","__________________________________________________________________________________________________\n","separable_conv_2_normal_left5_9 (None, 21, 21, 336)  115920      activation_139[0][0]             \n","__________________________________________________________________________________________________\n","separable_conv_2_bn_normal_left (None, 21, 21, 336)  1344        separable_conv_2_normal_left1_9[0\n","__________________________________________________________________________________________________\n","separable_conv_2_bn_normal_righ (None, 21, 21, 336)  1344        separable_conv_2_normal_right1_9[\n","__________________________________________________________________________________________________\n","separable_conv_2_bn_normal_left (None, 21, 21, 336)  1344        separable_conv_2_normal_left2_9[0\n","__________________________________________________________________________________________________\n","separable_conv_2_bn_normal_righ (None, 21, 21, 336)  1344        separable_conv_2_normal_right2_9[\n","__________________________________________________________________________________________________\n","normal_left3_9 (AveragePooling2 (None, 21, 21, 336)  0           normal_bn_1_9[0][0]              \n","__________________________________________________________________________________________________\n","normal_left4_9 (AveragePooling2 (None, 21, 21, 336)  0           adjust_bn_9[0][0]                \n","__________________________________________________________________________________________________\n","normal_right4_9 (AveragePooling (None, 21, 21, 336)  0           adjust_bn_9[0][0]                \n","__________________________________________________________________________________________________\n","separable_conv_2_bn_normal_left (None, 21, 21, 336)  1344        separable_conv_2_normal_left5_9[0\n","__________________________________________________________________________________________________\n","normal_add_1_9 (Add)            (None, 21, 21, 336)  0           separable_conv_2_bn_normal_left1_\n","                                                                 separable_conv_2_bn_normal_right1\n","__________________________________________________________________________________________________\n","normal_add_2_9 (Add)            (None, 21, 21, 336)  0           separable_conv_2_bn_normal_left2_\n","                                                                 separable_conv_2_bn_normal_right2\n","__________________________________________________________________________________________________\n","normal_add_3_9 (Add)            (None, 21, 21, 336)  0           normal_left3_9[0][0]             \n","                                                                 adjust_bn_9[0][0]                \n","__________________________________________________________________________________________________\n","normal_add_4_9 (Add)            (None, 21, 21, 336)  0           normal_left4_9[0][0]             \n","                                                                 normal_right4_9[0][0]            \n","__________________________________________________________________________________________________\n","normal_add_5_9 (Add)            (None, 21, 21, 336)  0           separable_conv_2_bn_normal_left5_\n","                                                                 normal_bn_1_9[0][0]              \n","__________________________________________________________________________________________________\n","normal_concat_9 (Concatenate)   (None, 21, 21, 2016) 0           adjust_bn_9[0][0]                \n","                                                                 normal_add_1_9[0][0]             \n","                                                                 normal_add_2_9[0][0]             \n","                                                                 normal_add_3_9[0][0]             \n","                                                                 normal_add_4_9[0][0]             \n","                                                                 normal_add_5_9[0][0]             \n","__________________________________________________________________________________________________\n","activation_140 (Activation)     (None, 21, 21, 2016) 0           normal_concat_8[0][0]            \n","__________________________________________________________________________________________________\n","activation_141 (Activation)     (None, 21, 21, 2016) 0           normal_concat_9[0][0]            \n","__________________________________________________________________________________________________\n","adjust_conv_projection_10 (Conv (None, 21, 21, 336)  677376      activation_140[0][0]             \n","__________________________________________________________________________________________________\n","normal_conv_1_10 (Conv2D)       (None, 21, 21, 336)  677376      activation_141[0][0]             \n","__________________________________________________________________________________________________\n","adjust_bn_10 (BatchNormalizatio (None, 21, 21, 336)  1344        adjust_conv_projection_10[0][0]  \n","__________________________________________________________________________________________________\n","normal_bn_1_10 (BatchNormalizat (None, 21, 21, 336)  1344        normal_conv_1_10[0][0]           \n","__________________________________________________________________________________________________\n","activation_142 (Activation)     (None, 21, 21, 336)  0           normal_bn_1_10[0][0]             \n","__________________________________________________________________________________________________\n","activation_144 (Activation)     (None, 21, 21, 336)  0           adjust_bn_10[0][0]               \n","__________________________________________________________________________________________________\n","activation_146 (Activation)     (None, 21, 21, 336)  0           adjust_bn_10[0][0]               \n","__________________________________________________________________________________________________\n","activation_148 (Activation)     (None, 21, 21, 336)  0           adjust_bn_10[0][0]               \n","__________________________________________________________________________________________________\n","activation_150 (Activation)     (None, 21, 21, 336)  0           normal_bn_1_10[0][0]             \n","__________________________________________________________________________________________________\n","separable_conv_1_normal_left1_1 (None, 21, 21, 336)  121296      activation_142[0][0]             \n","__________________________________________________________________________________________________\n","separable_conv_1_normal_right1_ (None, 21, 21, 336)  115920      activation_144[0][0]             \n","__________________________________________________________________________________________________\n","separable_conv_1_normal_left2_1 (None, 21, 21, 336)  121296      activation_146[0][0]             \n","__________________________________________________________________________________________________\n","separable_conv_1_normal_right2_ (None, 21, 21, 336)  115920      activation_148[0][0]             \n","__________________________________________________________________________________________________\n","separable_conv_1_normal_left5_1 (None, 21, 21, 336)  115920      activation_150[0][0]             \n","__________________________________________________________________________________________________\n","separable_conv_1_bn_normal_left (None, 21, 21, 336)  1344        separable_conv_1_normal_left1_10[\n","__________________________________________________________________________________________________\n","separable_conv_1_bn_normal_righ (None, 21, 21, 336)  1344        separable_conv_1_normal_right1_10\n","__________________________________________________________________________________________________\n","separable_conv_1_bn_normal_left (None, 21, 21, 336)  1344        separable_conv_1_normal_left2_10[\n","__________________________________________________________________________________________________\n","separable_conv_1_bn_normal_righ (None, 21, 21, 336)  1344        separable_conv_1_normal_right2_10\n","__________________________________________________________________________________________________\n","separable_conv_1_bn_normal_left (None, 21, 21, 336)  1344        separable_conv_1_normal_left5_10[\n","__________________________________________________________________________________________________\n","activation_143 (Activation)     (None, 21, 21, 336)  0           separable_conv_1_bn_normal_left1_\n","__________________________________________________________________________________________________\n","activation_145 (Activation)     (None, 21, 21, 336)  0           separable_conv_1_bn_normal_right1\n","__________________________________________________________________________________________________\n","activation_147 (Activation)     (None, 21, 21, 336)  0           separable_conv_1_bn_normal_left2_\n","__________________________________________________________________________________________________\n","activation_149 (Activation)     (None, 21, 21, 336)  0           separable_conv_1_bn_normal_right2\n","__________________________________________________________________________________________________\n","activation_151 (Activation)     (None, 21, 21, 336)  0           separable_conv_1_bn_normal_left5_\n","__________________________________________________________________________________________________\n","separable_conv_2_normal_left1_1 (None, 21, 21, 336)  121296      activation_143[0][0]             \n","__________________________________________________________________________________________________\n","separable_conv_2_normal_right1_ (None, 21, 21, 336)  115920      activation_145[0][0]             \n","__________________________________________________________________________________________________\n","separable_conv_2_normal_left2_1 (None, 21, 21, 336)  121296      activation_147[0][0]             \n","__________________________________________________________________________________________________\n","separable_conv_2_normal_right2_ (None, 21, 21, 336)  115920      activation_149[0][0]             \n","__________________________________________________________________________________________________\n","separable_conv_2_normal_left5_1 (None, 21, 21, 336)  115920      activation_151[0][0]             \n","__________________________________________________________________________________________________\n","separable_conv_2_bn_normal_left (None, 21, 21, 336)  1344        separable_conv_2_normal_left1_10[\n","__________________________________________________________________________________________________\n","separable_conv_2_bn_normal_righ (None, 21, 21, 336)  1344        separable_conv_2_normal_right1_10\n","__________________________________________________________________________________________________\n","separable_conv_2_bn_normal_left (None, 21, 21, 336)  1344        separable_conv_2_normal_left2_10[\n","__________________________________________________________________________________________________\n","separable_conv_2_bn_normal_righ (None, 21, 21, 336)  1344        separable_conv_2_normal_right2_10\n","__________________________________________________________________________________________________\n","normal_left3_10 (AveragePooling (None, 21, 21, 336)  0           normal_bn_1_10[0][0]             \n","__________________________________________________________________________________________________\n","normal_left4_10 (AveragePooling (None, 21, 21, 336)  0           adjust_bn_10[0][0]               \n","__________________________________________________________________________________________________\n","normal_right4_10 (AveragePoolin (None, 21, 21, 336)  0           adjust_bn_10[0][0]               \n","__________________________________________________________________________________________________\n","separable_conv_2_bn_normal_left (None, 21, 21, 336)  1344        separable_conv_2_normal_left5_10[\n","__________________________________________________________________________________________________\n","normal_add_1_10 (Add)           (None, 21, 21, 336)  0           separable_conv_2_bn_normal_left1_\n","                                                                 separable_conv_2_bn_normal_right1\n","__________________________________________________________________________________________________\n","normal_add_2_10 (Add)           (None, 21, 21, 336)  0           separable_conv_2_bn_normal_left2_\n","                                                                 separable_conv_2_bn_normal_right2\n","__________________________________________________________________________________________________\n","normal_add_3_10 (Add)           (None, 21, 21, 336)  0           normal_left3_10[0][0]            \n","                                                                 adjust_bn_10[0][0]               \n","__________________________________________________________________________________________________\n","normal_add_4_10 (Add)           (None, 21, 21, 336)  0           normal_left4_10[0][0]            \n","                                                                 normal_right4_10[0][0]           \n","__________________________________________________________________________________________________\n","normal_add_5_10 (Add)           (None, 21, 21, 336)  0           separable_conv_2_bn_normal_left5_\n","                                                                 normal_bn_1_10[0][0]             \n","__________________________________________________________________________________________________\n","normal_concat_10 (Concatenate)  (None, 21, 21, 2016) 0           adjust_bn_10[0][0]               \n","                                                                 normal_add_1_10[0][0]            \n","                                                                 normal_add_2_10[0][0]            \n","                                                                 normal_add_3_10[0][0]            \n","                                                                 normal_add_4_10[0][0]            \n","                                                                 normal_add_5_10[0][0]            \n","__________________________________________________________________________________________________\n","activation_152 (Activation)     (None, 21, 21, 2016) 0           normal_concat_9[0][0]            \n","__________________________________________________________________________________________________\n","activation_153 (Activation)     (None, 21, 21, 2016) 0           normal_concat_10[0][0]           \n","__________________________________________________________________________________________________\n","adjust_conv_projection_11 (Conv (None, 21, 21, 336)  677376      activation_152[0][0]             \n","__________________________________________________________________________________________________\n","normal_conv_1_11 (Conv2D)       (None, 21, 21, 336)  677376      activation_153[0][0]             \n","__________________________________________________________________________________________________\n","adjust_bn_11 (BatchNormalizatio (None, 21, 21, 336)  1344        adjust_conv_projection_11[0][0]  \n","__________________________________________________________________________________________________\n","normal_bn_1_11 (BatchNormalizat (None, 21, 21, 336)  1344        normal_conv_1_11[0][0]           \n","__________________________________________________________________________________________________\n","activation_154 (Activation)     (None, 21, 21, 336)  0           normal_bn_1_11[0][0]             \n","__________________________________________________________________________________________________\n","activation_156 (Activation)     (None, 21, 21, 336)  0           adjust_bn_11[0][0]               \n","__________________________________________________________________________________________________\n","activation_158 (Activation)     (None, 21, 21, 336)  0           adjust_bn_11[0][0]               \n","__________________________________________________________________________________________________\n","activation_160 (Activation)     (None, 21, 21, 336)  0           adjust_bn_11[0][0]               \n","__________________________________________________________________________________________________\n","activation_162 (Activation)     (None, 21, 21, 336)  0           normal_bn_1_11[0][0]             \n","__________________________________________________________________________________________________\n","separable_conv_1_normal_left1_1 (None, 21, 21, 336)  121296      activation_154[0][0]             \n","__________________________________________________________________________________________________\n","separable_conv_1_normal_right1_ (None, 21, 21, 336)  115920      activation_156[0][0]             \n","__________________________________________________________________________________________________\n","separable_conv_1_normal_left2_1 (None, 21, 21, 336)  121296      activation_158[0][0]             \n","__________________________________________________________________________________________________\n","separable_conv_1_normal_right2_ (None, 21, 21, 336)  115920      activation_160[0][0]             \n","__________________________________________________________________________________________________\n","separable_conv_1_normal_left5_1 (None, 21, 21, 336)  115920      activation_162[0][0]             \n","__________________________________________________________________________________________________\n","separable_conv_1_bn_normal_left (None, 21, 21, 336)  1344        separable_conv_1_normal_left1_11[\n","__________________________________________________________________________________________________\n","separable_conv_1_bn_normal_righ (None, 21, 21, 336)  1344        separable_conv_1_normal_right1_11\n","__________________________________________________________________________________________________\n","separable_conv_1_bn_normal_left (None, 21, 21, 336)  1344        separable_conv_1_normal_left2_11[\n","__________________________________________________________________________________________________\n","separable_conv_1_bn_normal_righ (None, 21, 21, 336)  1344        separable_conv_1_normal_right2_11\n","__________________________________________________________________________________________________\n","separable_conv_1_bn_normal_left (None, 21, 21, 336)  1344        separable_conv_1_normal_left5_11[\n","__________________________________________________________________________________________________\n","activation_155 (Activation)     (None, 21, 21, 336)  0           separable_conv_1_bn_normal_left1_\n","__________________________________________________________________________________________________\n","activation_157 (Activation)     (None, 21, 21, 336)  0           separable_conv_1_bn_normal_right1\n","__________________________________________________________________________________________________\n","activation_159 (Activation)     (None, 21, 21, 336)  0           separable_conv_1_bn_normal_left2_\n","__________________________________________________________________________________________________\n","activation_161 (Activation)     (None, 21, 21, 336)  0           separable_conv_1_bn_normal_right2\n","__________________________________________________________________________________________________\n","activation_163 (Activation)     (None, 21, 21, 336)  0           separable_conv_1_bn_normal_left5_\n","__________________________________________________________________________________________________\n","separable_conv_2_normal_left1_1 (None, 21, 21, 336)  121296      activation_155[0][0]             \n","__________________________________________________________________________________________________\n","separable_conv_2_normal_right1_ (None, 21, 21, 336)  115920      activation_157[0][0]             \n","__________________________________________________________________________________________________\n","separable_conv_2_normal_left2_1 (None, 21, 21, 336)  121296      activation_159[0][0]             \n","__________________________________________________________________________________________________\n","separable_conv_2_normal_right2_ (None, 21, 21, 336)  115920      activation_161[0][0]             \n","__________________________________________________________________________________________________\n","separable_conv_2_normal_left5_1 (None, 21, 21, 336)  115920      activation_163[0][0]             \n","__________________________________________________________________________________________________\n","separable_conv_2_bn_normal_left (None, 21, 21, 336)  1344        separable_conv_2_normal_left1_11[\n","__________________________________________________________________________________________________\n","separable_conv_2_bn_normal_righ (None, 21, 21, 336)  1344        separable_conv_2_normal_right1_11\n","__________________________________________________________________________________________________\n","separable_conv_2_bn_normal_left (None, 21, 21, 336)  1344        separable_conv_2_normal_left2_11[\n","__________________________________________________________________________________________________\n","separable_conv_2_bn_normal_righ (None, 21, 21, 336)  1344        separable_conv_2_normal_right2_11\n","__________________________________________________________________________________________________\n","normal_left3_11 (AveragePooling (None, 21, 21, 336)  0           normal_bn_1_11[0][0]             \n","__________________________________________________________________________________________________\n","normal_left4_11 (AveragePooling (None, 21, 21, 336)  0           adjust_bn_11[0][0]               \n","__________________________________________________________________________________________________\n","normal_right4_11 (AveragePoolin (None, 21, 21, 336)  0           adjust_bn_11[0][0]               \n","__________________________________________________________________________________________________\n","separable_conv_2_bn_normal_left (None, 21, 21, 336)  1344        separable_conv_2_normal_left5_11[\n","__________________________________________________________________________________________________\n","normal_add_1_11 (Add)           (None, 21, 21, 336)  0           separable_conv_2_bn_normal_left1_\n","                                                                 separable_conv_2_bn_normal_right1\n","__________________________________________________________________________________________________\n","normal_add_2_11 (Add)           (None, 21, 21, 336)  0           separable_conv_2…
_______________________________________________________________________________________________\n","separable_conv_1_bn_normal_left (None, 11, 11, 672)  2688        separable_conv_1_normal_left2_14[\n","__________________________________________________________________________________________________\n","separable_conv_1_bn_normal_righ (None, 11, 11, 672)  2688        separable_conv_1_normal_right2_14\n","__________________________________________________________________________________________________\n","separable_conv_1_bn_normal_left (None, 11, 11, 672)  2688        separable_conv_1_normal_left5_14[\n","__________________________________________________________________________________________________\n","activation_202 (Activation)     (None, 11, 11, 672)  0           separable_conv_1_bn_normal_left1_\n","__________________________________________________________________________________________________\n","activation_204 (Activation)     (None, 11, 11, 672)  0           separable_conv_1_bn_normal_right1\n","__________________________________________________________________________________________________\n","activation_206 (Activation)     (None, 11, 11, 672)  0           separable_conv_1_bn_normal_left2_\n","__________________________________________________________________________________________________\n","activation_208 (Activation)     (None, 11, 11, 672)  0           separable_conv_1_bn_normal_right2\n","__________________________________________________________________________________________________\n","activation_210 (Activation)     (None, 11, 11, 672)  0           separable_conv_1_bn_normal_left5_\n","__________________________________________________________________________________________________\n","separable_conv_2_normal_left1_1 (None, 11, 11, 672)  468384      activation_202[0][0]             \n","__________________________________________________________________________________________________\n","separable_conv_2_normal_right1_ (None, 11, 11, 672)  457632      activation_204[0][0]             \n","__________________________________________________________________________________________________\n","separable_conv_2_normal_left2_1 (None, 11, 11, 672)  468384      activation_206[0][0]             \n","__________________________________________________________________________________________________\n","separable_conv_2_normal_right2_ (None, 11, 11, 672)  457632      activation_208[0][0]             \n","__________________________________________________________________________________________________\n","separable_conv_2_normal_left5_1 (None, 11, 11, 672)  457632      activation_210[0][0]             \n","__________________________________________________________________________________________________\n","separable_conv_2_bn_normal_left (None, 11, 11, 672)  2688        separable_conv_2_normal_left1_14[\n","__________________________________________________________________________________________________\n","separable_conv_2_bn_normal_righ (None, 11, 11, 672)  2688        separable_conv_2_normal_right1_14\n","__________________________________________________________________________________________________\n","separable_conv_2_bn_normal_left (None, 11, 11, 672)  2688        separable_conv_2_normal_left2_14[\n","__________________________________________________________________________________________________\n","separable_conv_2_bn_normal_righ (None, 11, 11, 672)  2688        separable_conv_2_normal_right2_14\n","__________________________________________________________________________________________________\n","normal_left3_14 (AveragePooling (None, 11, 11, 672)  0           normal_bn_1_14[0][0]             \n","__________________________________________________________________________________________________\n","normal_left4_14 (AveragePooling (None, 11, 11, 672)  0           adjust_bn_14[0][0]               \n","__________________________________________________________________________________________________\n","normal_right4_14 (AveragePoolin (None, 11, 11, 672)  0           adjust_bn_14[0][0]               \n","__________________________________________________________________________________________________\n","separable_conv_2_bn_normal_left (None, 11, 11, 672)  2688        separable_conv_2_normal_left5_14[\n","__________________________________________________________________________________________________\n","normal_add_1_14 (Add)           (None, 11, 11, 672)  0           separable_conv_2_bn_normal_left1_\n","                                                                 separable_conv_2_bn_normal_right1\n","__________________________________________________________________________________________________\n","normal_add_2_14 (Add)           (None, 11, 11, 672)  0           separable_conv_2_bn_normal_left2_\n","                                                                 separable_conv_2_bn_normal_right2\n","__________________________________________________________________________________________________\n","normal_add_3_14 (Add)           (None, 11, 11, 672)  0           normal_left3_14[0][0]            \n","                                                                 adjust_bn_14[0][0]               \n","__________________________________________________________________________________________________\n","normal_add_4_14 (Add)           (None, 11, 11, 672)  0           normal_left4_14[0][0]            \n","                                                                 normal_right4_14[0][0]           \n","__________________________________________________________________________________________________\n","normal_add_5_14 (Add)           (None, 11, 11, 672)  0           separable_conv_2_bn_normal_left5_\n","                                                                 normal_bn_1_14[0][0]             \n","__________________________________________________________________________________________________\n","normal_concat_14 (Concatenate)  (None, 11, 11, 4032) 0           adjust_bn_14[0][0]               \n","                                                                 normal_add_1_14[0][0]            \n","                                                                 normal_add_2_14[0][0]            \n","                                                                 normal_add_3_14[0][0]            \n","                                                                 normal_add_4_14[0][0]            \n","                                                                 normal_add_5_14[0][0]            \n","__________________________________________________________________________________________________\n","activation_211 (Activation)     (None, 11, 11, 4032) 0           normal_concat_13[0][0]           \n","__________________________________________________________________________________________________\n","activation_212 (Activation)     (None, 11, 11, 4032) 0           normal_concat_14[0][0]           \n","__________________________________________________________________________________________________\n","adjust_conv_projection_15 (Conv (None, 11, 11, 672)  2709504     activation_211[0][0]             \n","__________________________________________________________________________________________________\n","normal_conv_1_15 (Conv2D)       (None, 11, 11, 672)  2709504     activation_212[0][0]             \n","__________________________________________________________________________________________________\n","adjust_bn_15 (BatchNormalizatio (None, 11, 11, 672)  2688        adjust_conv_projection_15[0][0]  \n","__________________________________________________________________________________________________\n","normal_bn_1_15 (BatchNormalizat (None, 11, 11, 672)  2688        normal_conv_1_15[0][0]           \n","__________________________________________________________________________________________________\n","activation_213 (Activation)     (None, 11, 11, 672)  0           normal_bn_1_15[0][0]             \n","__________________________________________________________________________________________________\n","activation_215 (Activation)     (None, 11, 11, 672)  0           adjust_bn_15[0][0]               \n","__________________________________________________________________________________________________\n","activation_217 (Activation)     (None, 11, 11, 672)  0           adjust_bn_15[0][0]               \n","__________________________________________________________________________________________________\n","activation_219 (Activation)     (None, 11, 11, 672)  0           adjust_bn_15[0][0]               \n","__________________________________________________________________________________________________\n","activation_221 (Activation)     (None, 11, 11, 672)  0           normal_bn_1_15[0][0]             \n","__________________________________________________________________________________________________\n","separable_conv_1_normal_left1_1 (None, 11, 11, 672)  468384      activation_213[0][0]             \n","__________________________________________________________________________________________________\n","separable_conv_1_normal_right1_ (None, 11, 11, 672)  457632      activation_215[0][0]             \n","__________________________________________________________________________________________________\n","separable_conv_1_normal_left2_1 (None, 11, 11, 672)  468384      activation_217[0][0]             \n","__________________________________________________________________________________________________\n","separable_conv_1_normal_right2_ (None, 11, 11, 672)  457632      activation_219[0][0]             \n","__________________________________________________________________________________________________\n","separable_conv_1_normal_left5_1 (None, 11, 11, 672)  457632      activation_221[0][0]             \n","__________________________________________________________________________________________________\n","separable_conv_1_bn_normal_left (None, 11, 11, 672)  2688        separable_conv_1_normal_left1_15[\n","__________________________________________________________________________________________________\n","separable_conv_1_bn_normal_righ (None, 11, 11, 672)  2688        separable_conv_1_normal_right1_15\n","__________________________________________________________________________________________________\n","separable_conv_1_bn_normal_left (None, 11, 11, 672)  2688        separable_conv_1_normal_left2_15[\n","__________________________________________________________________________________________________\n","separable_conv_1_bn_normal_righ (None, 11, 11, 672)  2688        separable_conv_1_normal_right2_15\n","__________________________________________________________________________________________________\n","separable_conv_1_bn_normal_left (None, 11, 11, 672)  2688        separable_conv_1_normal_left5_15[\n","__________________________________________________________________________________________________\n","activation_214 (Activation)     (None, 11, 11, 672)  0           separable_conv_1_bn_normal_left1_\n","__________________________________________________________________________________________________\n","activation_216 (Activation)     (None, 11, 11, 672)  0           separable_conv_1_bn_normal_right1\n","__________________________________________________________________________________________________\n","activation_218 (Activation)     (None, 11, 11, 672)  0           separable_conv_1_bn_normal_left2_\n","__________________________________________________________________________________________________\n","activation_220 (Activation)     (None, 11, 11, 672)  0           separable_conv_1_bn_normal_right2\n","__________________________________________________________________________________________________\n","activation_222 (Activation)     (None, 11, 11, 672)  0           separable_conv_1_bn_normal_left5_\n","__________________________________________________________________________________________________\n","separable_conv_2_normal_left1_1 (None, 11, 11, 672)  468384      activation_214[0][0]             \n","__________________________________________________________________________________________________\n","separable_conv_2_normal_right1_ (None, 11, 11, 672)  457632      activation_216[0][0]             \n","__________________________________________________________________________________________________\n","separable_conv_2_normal_left2_1 (None, 11, 11, 672)  468384      activation_218[0][0]             \n","__________________________________________________________________________________________________\n","separable_conv_2_normal_right2_ (None, 11, 11, 672)  457632      activation_220[0][0]             \n","__________________________________________________________________________________________________\n","separable_conv_2_normal_left5_1 (None, 11, 11, 672)  457632      activation_222[0][0]             \n","__________________________________________________________________________________________________\n","separable_conv_2_bn_normal_left (None, 11, 11, 672)  2688        separable_conv_2_normal_left1_15[\n","__________________________________________________________________________________________________\n","separable_conv_2_bn_normal_righ (None, 11, 11, 672)  2688        separable_conv_2_normal_right1_15\n","__________________________________________________________________________________________________\n","separable_conv_2_bn_normal_left (None, 11, 11, 672)  2688        separable_conv_2_normal_left2_15[\n","__________________________________________________________________________________________________\n","separable_conv_2_bn_normal_righ (None, 11, 11, 672)  2688        separable_conv_2_normal_right2_15\n","__________________________________________________________________________________________________\n","normal_left3_15 (AveragePooling (None, 11, 11, 672)  0           normal_bn_1_15[0][0]             \n","__________________________________________________________________________________________________\n","normal_left4_15 (AveragePooling (None, 11, 11, 672)  0           adjust_bn_15[0][0]               \n","__________________________________________________________________________________________________\n","normal_right4_15 (AveragePoolin (None, 11, 11, 672)  0           adjust_bn_15[0][0]               \n","__________________________________________________________________________________________________\n","separable_conv_2_bn_normal_left (None, 11, 11, 672)  2688        separable_conv_2_normal_left5_15[\n","__________________________________________________________________________________________________\n","normal_add_1_15 (Add)           (None, 11, 11, 672)  0           separable_conv_2_bn_normal_left1_\n","                                                                 separable_conv_2_bn_normal_right1\n","__________________________________________________________________________________________________\n","normal_add_2_15 (Add)           (None, 11, 11, 672)  0           separable_conv_2_bn_normal_left2_\n","                                                                 separable_conv_2_bn_normal_right2\n","__________________________________________________________________________________________________\n","normal_add_3_15 (Add)           (None, 11, 11, 672)  0           normal_left3_15[0][0]            \n","                                                                 adjust_bn_15[0][0]               \n","__________________________________________________________________________________________________\n","normal_add_4_15 (Add)           (None, 11, 11, 672)  0           normal_left4_15[0][0]            \n","                                                                 normal_right4_15[0][0]           \n","__________________________________________________________________________________________________\n","normal_add_5_15 (Add)           (None, 11, 11, 672)  0           separable_conv_2_bn_normal_left5_\n","                                                                 normal_bn_1_15[0][0]             \n","__________________________________________________________________________________________________\n","normal_concat_15 (Concatenate)  (None, 11, 11, 4032) 0           adjust_bn_15[0][0]               \n","                                                                 normal_add_1_15[0][0]            \n","                                                                 normal_add_2_15[0][0]            \n","                                                                 normal_add_3_15[0][0]            \n","                                                                 normal_add_4_15[0][0]            \n","                                                                 normal_add_5_15[0][0]            \n","__________________________________________________________________________________________________\n","activation_223 (Activation)     (None, 11, 11, 4032) 0           normal_concat_14[0][0]           \n","__________________________________________________________________________________________________\n","activation_224 (Activation)     (None, 11, 11, 4032) 0           normal_concat_15[0][0]           \n","__________________________________________________________________________________________________\n","adjust_conv_projection_16 (Conv (None, 11, 11, 672)  2709504     activation_223[0][0]             \n","__________________________________________________________________________________________________\n","normal_conv_1_16 (Conv2D)       (None, 11, 11, 672)  2709504     activation_224[0][0]             \n","__________________________________________________________________________________________________\n","adjust_bn_16 (BatchNormalizatio (None, 11, 11, 672)  2688        adjust_conv_projection_16[0][0]  \n","__________________________________________________________________________________________________\n","normal_bn_1_16 (BatchNormalizat (None, 11, 11, 672)  2688        normal_conv_1_16[0][0]           \n","__________________________________________________________________________________________________\n","activation_225 (Activation)     (None, 11, 11, 672)  0           normal_bn_1_16[0][0]             \n","__________________________________________________________________________________________________\n","activation_227 (Activation)     (None, 11, 11, 672)  0           adjust_bn_16[0][0]               \n","__________________________________________________________________________________________________\n","activation_229 (Activation)     (None, 11, 11, 672)  0           adjust_bn_16[0][0]               \n","__________________________________________________________________________________________________\n","activation_231 (Activation)     (None, 11, 11, 672)  0           adjust_bn_16[0][0]               \n","__________________________________________________________________________________________________\n","activation_233 (Activation)     (None, 11, 11, 672)  0           normal_bn_1_16[0][0]             \n","__________________________________________________________________________________________________\n","separable_conv_1_normal_left1_1 (None, 11, 11, 672)  468384      activation_225[0][0]             \n","__________________________________________________________________________________________________\n","separable_conv_1_normal_right1_ (None, 11, 11, 672)  457632      activation_227[0][0]             \n","__________________________________________________________________________________________________\n","separable_conv_1_normal_left2_1 (None, 11, 11, 672)  468384      activation_229[0][0]             \n","__________________________________________________________________________________________________\n","separable_conv_1_normal_right2_ (None, 11, 11, 672)  457632      activation_231[0][0]             \n","__________________________________________________________________________________________________\n","separable_conv_1_normal_left5_1 (None, 11, 11, 672)  457632      activation_233[0][0]             \n","__________________________________________________________________________________________________\n","separable_conv_1_bn_normal_left (None, 11, 11, 672)  2688        separable_conv_1_normal_left1_16[\n","__________________________________________________________________________________________________\n","separable_conv_1_bn_normal_righ (None, 11, 11, 672)  2688        separable_conv_1_normal_right1_16\n","__________________________________________________________________________________________________\n","separable_conv_1_bn_normal_left (None, 11, 11, 672)  2688        separable_conv_1_normal_left2_16[\n","__________________________________________________________________________________________________\n","separable_conv_1_bn_normal_righ (None, 11, 11, 672)  2688        separable_conv_1_normal_right2_16\n","__________________________________________________________________________________________________\n","separable_conv_1_bn_normal_left (None, 11, 11, 672)  2688        separable_conv_1_normal_left5_16[\n","__________________________________________________________________________________________________\n","activation_226 (Activation)     (None, 11, 11, 672)  0           separable_conv_1_bn_normal_left1_\n","__________________________________________________________________________________________________\n","activation_228 (Activation)     (None, 11, 11, 672)  0           separable_conv_1_bn_normal_right1\n","__________________________________________________________________________________________________\n","activation_230 (Activation)     (None, 11, 11, 672)  0           separable_conv_1_bn_normal_left2_\n","__________________________________________________________________________________________________\n","activation_232 (Activation)     (None, 11, 11, 672)  0           separable_conv_1_bn_normal_right2\n","__________________________________________________________________________________________________\n","activation_234 (Activation)     (None, 11, 11, 672)  0           separable_conv_1_bn_normal_left5_\n","__________________________________________________________________________________________________\n","separable_conv_2_normal_left1_1 (None, 11, 11, 672)  468384      activation_226[0][0]             \n","__________________________________________________________________________________________________\n","separable_conv_2_normal_right1_ (None, 11, 11, 672)  457632      activation_228[0][0]             \n","__________________________________________________________________________________________________\n","separable_conv_2_normal_left2_1 (None, 11, 11, 672)  468384      activation_230[0][0]             \n","__________________________________________________________________________________________________\n","separable_conv_2_normal_right2_ (None, 11, 11, 672)  457632      activation_232[0][0]             \n","__________________________________________________________________________________________________\n","separable_conv_2_normal_left5_1 (None, 11, 11, 672)  457632      activation_234[0][0]             \n","__________________________________________________________________________________________________\n","separable_conv_2_bn_normal_left (None, 11, 11, 672)  2688        separable_conv_2_normal_left1_16[\n","__________________________________________________________________________________________________\n","separable_conv_2_bn_normal_righ (None, 11, 11, 672)  2688        separable_conv_2_normal_right1_16\n","__________________________________________________________________________________________________\n","separable_conv_2_bn_normal_left (None, 11, 11, 672)  2688        separable_conv_2_normal_left2_16[\n","__________________________________________________________________________________________________\n","separable_conv_2_bn_normal_righ (None, 11, 11, 672)  2688        separable_conv_2_normal_right2_16\n","__________________________________________________________________________________________________\n","normal_left3_16 (AveragePooling (None, 11, 11, 672)  0           normal_bn_1_16[0][0]             \n","__________________________________________________________________________________________________\n","normal_left4_16 (AveragePooling (None, 11, 11, 672)  0           adjust_bn_16[0][0]               \n","__________________________________________________________________________________________________\n","normal_right4_16 (AveragePoolin (None, 11, 11, 672)  0           adjust_bn_16[0][0]               \n","__________________________________________________________________________________________________\n","separable_conv_2_bn_normal_left (None, 11, 11, 672)  2688        separable_conv_2_normal_left5_16[\n","__________________________________________________________________________________________________\n","normal_add_1_16 (Add)           (None, 11, 11, 672)  0           separable_conv_2_bn_normal_left1_\n","                                                                 separable_conv_2_bn_normal_right1\n","__________________________________________________________________________________________________\n","normal_add_2_16 (Add)           (None, 11, 11, 672)  0           separable_conv_2_bn_normal_left2_\n","                                                                 separable_conv_2_bn_normal_right2\n","__________________________________________________________________________________________________\n","normal_add_3_16 (Add)           (None, 11, 11, 672)  0           normal_left3_16[0][0]            \n","                                                                 adjust_bn_16[0][0]               \n","__________________________________________________________________________________________________\n","normal_add_4_16 (Add)           (None, 11, 11, 672)  0           normal_left4_16[0][0]            \n","                                                                 normal_right4_16[0][0]           \n","__________________________________________________________________________________________________\n","normal_add_5_16 (Add)           (None, 11, 11, 672)  0           separable_conv_2_bn_normal_left5_\n","                                                                 normal_bn_1_16[0][0]             \n","__________________________________________________________________________________________________\n","normal_concat_16 (Concatenate)  (None, 11, 11, 4032) 0           adjust_bn_16[0][0]               \n","                                                                 normal_add_1_16[0][0]            \n","                                                                 normal_add_2_16[0][0]            \n","                                                                 normal_add_3_16[0][0]            \n","                                                                 normal_add_4_16[0][0]            \n","                                                                 normal_add_5_16[0][0]            \n","__________________________________________________________________________________________________\n","activation_235 (Activation)     (None, 11, 11, 4032) 0           normal_concat_15[0][0]           \n","__________________________________________________________________________________________________\n","activation_236 (Activation)     (None, 11, 11, 4032) 0           normal_concat_16[0][0]           \n","__________________________________________________________________________________________________\n","adjust_conv_projection_17 (Conv (None, 11, 11, 672)  2709504     activation_235[0][0]             \n","__________________________________________________________________________________________________\n","normal_conv_1_17 (Conv2D)       (None, 11, 11, 672)  2709504     activation_236[0][0]             \n","__________________________________________________________________________________________________\n","adjust_bn_17 (BatchNormalizatio (None, 11, 11, 672)  2688        adjust_conv_projection_17[0][0]  \n","__________________________________________________________________________________________________\n","normal_bn_1_17 (BatchNormalizat (None, 11, 11, 672)  2688        normal_conv_1_17[0][0]           \n","__________________________________________________________________________________________________\n","activation_237 (Activation)     (None, 11, 11, 672)  0           normal_bn_1_17[0][0]             \n","__________________________________________________________________________________________________\n","activation_239 (Activation)     (None, 11, 11, 672)  0           adjust_bn_17[0][0]               \n","__________________________________________________________________________________________________\n","activation_241 (Activation)     (None, 11, 11, 672)  0           adjust_bn_17[0][0]               \n","__________________________________________________________________________________________________\n","activation_243 (Activation)     (None, 11, 11, 672)  0           adjust_bn_17[0][0]               \n","__________________________________________________________________________________________________\n","activation_245 (Activation)     (None, 11, 11, 672)  0           normal_bn_1_17[0][0]             \n","__________________________________________________________________________________________________\n","separable_conv_1_normal_left1_1 (None, 11, 11, 672)  468384      activation_237[0][0]             \n","__________________________________________________________________________________________________\n","separable_conv_1_normal_right1_ (None, 11, 11, 672)  457632      activation_239[0][0]             \n","__________________________________________________________________________________________________\n","separable_conv_1_normal_left2_1 (None, 11, 11, 672)  468384      activation_241[0][0]             \n","__________________________________________________________________________________________________\n","separable_conv_1_normal_right2_ (None, 11, 11, 672)  457632      activation_243[0][0]             \n","__________________________________________________________________________________________________\n","separable_conv_1_normal_left5_1 (None, 11, 11, 672)  457632      activation_245[0][0]             \n","__________________________________________________________________________________________________\n","separable_conv_1_bn_normal_left (None, 11, 11, 672)  2688        separable_conv_1_normal_left1_17[\n","__________________________________________________________________________________________________\n","separable_conv_1_bn_normal_righ (None, 11, 11, 672)  2688        separable_conv_1_normal_right1_17\n","__________________________________________________________________________________________________\n","separable_conv_1_bn_normal_left (None, 11, 11, 672)  2688        separable_conv_1_normal_left2_17[\n","__________________________________________________________________________________________________\n","separable_conv_1_bn_normal_righ (None, 11, 11, 672)  2688        separable_conv_1_normal_right2_17\n","__________________________________________________________________________________________________\n","separable_conv_1_bn_normal_left (None, 11, 11, 672)  2688        separable_conv_1_normal_left5_17[\n","__________________________________________________________________________________________________\n","activation_238 (Activation)     (None, 11, 11, 672)  0           separable_conv_1_bn_normal_left1_\n","__________________________________________________________________________________________________\n","activation_240 (Activation)     (None, 11, 11, 672)  0           separable_conv_1_bn_normal_right1\n","__________________________________________________________________________________________________\n","activation_242 (Activation)     (None, 11, 11, 672)  0           separable_conv_1_bn_normal_left2_\n","__________________________________________________________________________________________________\n","activation_244 (Activation)     (None, 11, 11, 672)  0           separable_conv_1_bn_normal_right2\n","__________________________________________________________________________________________________\n","activation_246 (Activation)     (None, 11, 11, 672)  0           separable_conv_1_bn_normal_left5_\n","__________________________________________________________________________________________________\n","separable_conv_2_normal_left1_1 (None, 11, 11, 672)  468384      activation_238[0][0]             \n","__________________________________________________________________________________________________\n","separable_conv_2_normal_right1_ (None, 11, 11, 672)  457632      activation_240[0][0]             \n","__________________________________________________________________________________________________\n","separable_conv_2_normal_left2_1 (None, 11, 11, 672)  468384      activation_242[0][0]             \n","__________________________________________________________________________________________________\n","separable_conv_2_normal_right2_ (None, 11, 11, 672)  457632      activation_244[0][0]             \n","__________________________________________________________________________________________________\n","separable_conv_2_normal_left5_1 (None, 11, 11, 672)  457632      activation_246[0][0]             \n","__________________________________________________________________________________________________\n","separable_conv_2_bn_normal_left (None, 11, 11, 672)  2688        separable_conv_2_normal_left1_17[\n","__________________________________________________________________________________________________\n","separable_conv_2_bn_normal_righ (None, 11, 11, 672)  2688        separable_conv_2_normal_right1_17\n","__________________________________________________________________________________________________\n","separable_conv_2_bn_normal_left (None, 11, 11, 672)  2688        separable_conv_2_normal_left2_17[\n","__________________________________________________________________________________________________\n","separable_conv_2_bn_normal_righ (None, 11, 11, 672)  2688        separable_conv_2_normal_right2_17\n","__________________________________________________________________________________________________\n","normal_left3_17 (AveragePooling (None, 11, 11, 672)  0           normal_bn_1_17[0][0]             \n","__________________________________________________________________________________________________\n","normal_left4_17 (AveragePooling (None, 11, 11, 672)  0           adjust_bn_17[0][0]               \n","__________________________________________________________________________________________________\n","normal_right4_17 (AveragePoolin (None, 11, 11, 672)  0           adjust_bn_17[0][0]               \n","__________________________________________________________________________________________________\n","separable_conv_2_bn_normal_left (None, 11, 11, 672)  2688        separable_conv_2_normal_left5_17[\n","__________________________________________________________________________________________________\n","normal_add_1_17 (Add)           (None, 11, 11, 672)  0           separable_conv_2_bn_normal_left1_\n","                                                                 separable_conv_2_bn_normal_right1\n","__________________________________________________________________________________________________\n","normal_add_2_17 (Add)           (None, 11, 11, 672)  0           separable_conv_2_bn_normal_left2_\n","                                                                 separable_conv_2_bn_normal_right2\n","__________________________________________________________________________________________________\n","normal_add_3_17 (Add)           (None, 11, 11, 672)  0           normal_left3_17[0][0]            \n","                                                                 adjust_bn_17[0][0]               \n","__________________________________________________________________________________________________\n","normal_add_4_17 (Add)           (None, 11, 11, 672)  0           normal_left4_17[0][0]            \n","                                                                 normal_right4_17[0][0]           \n","__________________________________________________________________________________________________\n","normal_add_5_17 (Add)           (None, 11, 11, 672)  0           separable_conv_2_bn_normal_left5_\n","                                                                 normal_bn_1_17[0][0]             \n","__________________________________________________________________________________________________\n","normal_concat_17 (Concatenate)  (None, 11, 11, 4032) 0           adjust_bn_17[0][0]               \n","                                                                 normal_add_1_17[0][0]            \n","                                                                 normal_add_2_17[0][0]            \n","                                                                 normal_add_3_17[0][0]            \n","                                                                 normal_add_4_17[0][0]            \n","                                                                 normal_add_5_17[0][0]            \n","__________________________________________________________________________________________________\n","activation_247 (Activation)     (None, 11, 11, 4032) 0           normal_concat_16[0][0]           \n","__________________________________________________________________________________________________\n","activation_248 (Activation)     (None, 11, 11, 4032) 0           normal_concat_17[0][0]           \n","__________________________________________________________________________________________________\n","adjust_conv_projection_18 (Conv (None, 11, 11, 672)  2709504     activation_247[0][0]             \n","__________________________________________________________________________________________________\n","normal_conv_1_18 (Conv2D)       (None, 11, 11, 672)  2709504     activation_248[0][0]             \n","__________________________________________________________________________________________________\n","adjust_bn_18 (BatchNormalizatio (None, 11, 11, 672)  2688        adjust_conv_projection_18[0][0]  \n","__________________________________________________________________________________________________\n","normal_bn_1_18 (BatchNormalizat (None, 11, 11, 672)  2688        normal_conv_1_18[0][0]           \n","__________________________________________________________________________________________________\n","activation_249 (Activation)     (None, 11, 11, 672)  0           normal_bn_1_18[0][0]             \n","__________________________________________________________________________________________________\n","activation_251 (Activation)     (None, 11, 11, 672)  0           adjust_bn_18[0][0]               \n","__________________________________________________________________________________________________\n","activation_253 (Activation)     (None, 11, 11, 672)  0           adjust_bn_18[0][0]               \n","__________________________________________________________________________________________________\n","activation_255 (Activation)     (None, 11, 11, 672)  0           adjust_bn_18[0][0]               \n","__________________________________________________________________________________________________\n","activation_257 (Activation)     (None, 11, 11, 672)  0           normal_bn_1_18[0][0]             \n","__________________________________________________________________________________________________\n","separable_conv_1_normal_left1_1 (None, 11, 11, 672)  468384      activation_249[0][0]             \n","__________________________________________________________________________________________________\n","separable_conv_1_normal_right1_ (None, 11, 11, 672)  457632      activation_251[0][0]             \n","__________________________________________________________________________________________________\n","separable_conv_1_normal_left2_1 (None, 11, 11, 672)  468384      activation_253[0][0]             \n","__________________________________________________________________________________________________\n","separable_conv_1_normal_right2_ (None, 11, 11, 672)  457632      activation_255[0][0]             \n","__________________________________________________________________________________________________\n","separable_conv_1_normal_left5_1 (None, 11, 11, 672)  457632      activation_257[0][0]             \n","__________________________________________________________________________________________________\n","separable_conv_1_bn_normal_left (None, 11, 11, 672)  2688        separable_conv_1_normal_left1_18[\n","__________________________________________________________________________________________________\n","separable_conv_1_bn_normal_righ (None, 11, 11, 672)  2688        separable_conv_1_normal_right1_18\n","__________________________________________________________________________________________________\n","separable_conv_1_bn_normal_left (None, 11, 11, 672)  2688        separable_conv_1_normal_left2_18[\n","__________________________________________________________________________________________________\n","separable_conv_1_bn_normal_righ (None, 11, 11, 672)  2688        separable_conv_1_normal_right2_18\n","__________________________________________________________________________________________________\n","separable_conv_1_bn_normal_left (None, 11, 11, 672)  2688        separable_conv_1_normal_left5_18[\n","__________________________________________________________________________________________________\n","activation_250 (Activation)     (None, 11, 11, 672)  0           separable_conv_1_bn_normal_left1_\n","__________________________________________________________________________________________________\n","activation_252 (Activation)     (None, 11, 11, 672)  0           separable_conv_1_bn_normal_right1\n","__________________________________________________________________________________________________\n","activation_254 (Activation)     (None, 11, 11, 672)  0           separable_conv_1_bn_normal_left2_\n","__________________________________________________________________________________________________\n","activation_256 (Activation)     (None, 11, 11, 672)  0           separable_conv_1_bn_normal_right2\n","__________________________________________________________________________________________________\n","activation_258 (Activation)     (None, 11, 11, 672)  0           separable_conv_1_bn_normal_left5_\n","__________________________________________________________________________________________________\n","separable_conv_2_normal_left1_1 (None, 11, 11, 672)  468384      activation_250[0][0]             \n","__________________________________________________________________________________________________\n","separable_conv_2_normal_right1_ (None, 11, 11, 672)  457632      activation_252[0][0]             \n","__________________________________________________________________________________________________\n","separable_conv_2_normal_left2_1 (None, 11, 11, 672)  468384      activation_254[0][0]             \n","__________________________________________________________________________________________________\n","separable_conv_2_normal_right2_ (None, 11, 11, 672)  457632      activation_256[0][0]             \n","__________________________________________________________________________________________________\n","separable_conv_2_normal_left5_1 (None, 11, 11, 672)  457632      activation_258[0][0]             \n","__________________________________________________________________________________________________\n","separable_conv_2_bn_normal_left (None, 11, 11, 672)  2688        separable_conv_2_normal_left1_18[\n","__________________________________________________________________________________________________\n","separable_conv_2_bn_normal_righ (None, 11, 11, 672)  2688        separable_conv_2_normal_right1_18\n","__________________________________________________________________________________________________\n","separable_conv_2_bn_normal_left (None, 11, 11, 672)  2688        separable_conv_2_normal_left2_18[\n","__________________________________________________________________________________________________\n","separable_conv_2_bn_normal_righ (None, 11, 11, 672)  2688        separable_conv_2_normal_right2_18\n","__________________________________________________________________________________________________\n","normal_left3_18 (AveragePooling (None, 11, 11, 672)  0           normal_bn_1_18[0][0]             \n","__________________________________________________________________________________________________\n","normal_left4_18 (AveragePooling (None, 11, 11, 672)  0           adjust_bn_18[0][0]               \n","__________________________________________________________________________________________________\n","normal_right4_18 (AveragePoolin (None, 11, 11, 672)  0           adjust_bn_18[0][0]               \n","__________________________________________________________________________________________________\n","separable_conv_2_bn_normal_left (None, 11, 11, 672)  2688        separable_conv_2_normal_left5_18[\n","__________________________________________________________________________________________________\n","normal_add_1_18 (Add)           (None, 11, 11, 672)  0           separable_conv_2_bn_normal_left1_\n","                                                                 separable_conv_2_bn_normal_right1\n","__________________________________________________________________________________________________\n","normal_add_2_18 (Add)           (None, 11, 11, 672)  0           separable_conv_2_bn_normal_left2_\n","                                                                 separable_conv_2_bn_normal_right2\n","__________________________________________________________________________________________________\n","normal_add_3_18 (Add)           (None, 11, 11, 672)  0           normal_left3_18[0][0]            \n","                                                                 adjust_bn_18[0][0]               \n","__________________________________________________________________________________________________\n","normal_add_4_18 (Add)           (None, 11, 11, 672)  0           normal_left4_18[0][0]            \n","                                                                 normal_right4_18[0][0]           \n","__________________________________________________________________________________________________\n","normal_add_5_18 (Add)           (None, 11, 11, 672)  0           separable_conv_2_bn_normal_left5_\n","                                                                 normal_bn_1_18[0][0]             \n","__________________________________________________________________________________________________\n","normal_concat_18 (Concatenate)  (None, 11, 11, 4032) 0           adjust_bn_18[0][0]               \n","                                                                 normal_add_1_18[0][0]            \n","                                                                 normal_add_2_18[0][0]            \n","                                                                 normal_add_3_18[0][0]            \n","                                                                 normal_add_4_18[0][0]            \n","                                                                 normal_add_5_18[0][0]            \n","__________________________________________________________________________________________________\n","activation_259 (Activation)     (None, 11, 11, 4032) 0           normal_concat_18[0][0]           \n","__________________________________________________________________________________________________\n","global_average_pooling2d (Globa (None, 4032)         0           activation_259[0][0]             \n","__________________________________________________________________________________________________\n","dense (Dense)                   (None, 218)          879194      global_average_pooling2d[0][0]   \n","__________________________________________________________________________________________________\n","dropout (Dropout)               (None, 218)          0           dense[0][0]                      \n","__________________________________________________________________________________________________\n","dense_1 (Dense)                 (None, 218)          47742       dropout[0][0]                    \n","__________________________________________________________________________________________________\n","dropout_1 (Dropout)             (None, 218)          0           dense_1[0][0]                    \n","__________________________________________________________________________________________________\n","dense_2 (Dense)                 (None, 512)          112128      dropout_1[0][0]                  \n","__________________________________________________________________________________________________\n","dropout_2 (Dropout)             (None, 512)          0           dense_2[0][0]                    \n","__________________________________________________________________________________________________\n","dense_3 (Dense)                 (None, 4)            2052        dropout_2[0][0]                  \n","==================================================================================================\n","Total params: 85,957,934\n","Trainable params: 43,956,302\n","Non-trainable params: 42,001,632\n","__________________________________________________________________________________________________\n"],"name":"stdout"}]},{"cell_type":"markdown","metad
…
